<?xml version="1.0" encoding="UTF-8"?>
<net batch="1" name="instance-segmentation-security-0010" version="6">
	<layers>
		<layer id="0" name="im_info" precision="FP32" type="Input">
			<output>
				<port id="0">
					<dim>1</dim>
					<dim>3</dim>
				</port>
			</output>
		</layer>
		<layer id="1" name="1128/Dims/Output_0/Data__const" precision="I32" type="Const">
			<output>
				<port id="1">
					<dim>1</dim>
				</port>
			</output>
			<blobs>
				<custom offset="0" size="4"/>
			</blobs>
		</layer>
		<layer id="2" name="1128" precision="FP32" type="Squeeze">
			<input>
				<port id="0">
					<dim>1</dim>
					<dim>3</dim>
				</port>
				<port id="1">
					<dim>1</dim>
				</port>
			</input>
			<output>
				<port id="2">
					<dim>3</dim>
				</port>
			</output>
		</layer>
		<layer id="3" name="642/Output_0/Data__const" precision="FP32" type="Const">
			<output>
				<port id="1">
					<dim>3</dim>
					<dim>4</dim>
				</port>
			</output>
			<blobs>
				<custom offset="4" size="48"/>
			</blobs>
		</layer>
		<layer id="4" name="im_data" precision="FP32" type="Input">
			<output>
				<port id="0">
					<dim>1</dim>
					<dim>3</dim>
					<dim>800</dim>
					<dim>1344</dim>
				</port>
			</output>
		</layer>
		<layer id="5" name="ScaleShift/Add_" precision="FP32" type="ScaleShift">
			<input>
				<port id="0">
					<dim>1</dim>
					<dim>3</dim>
					<dim>800</dim>
					<dim>1344</dim>
				</port>
			</input>
			<output>
				<port id="3">
					<dim>1</dim>
					<dim>3</dim>
					<dim>800</dim>
					<dim>1344</dim>
				</port>
			</output>
			<blobs>
				<weights offset="52" size="12"/>
				<biases offset="64" size="12"/>
			</blobs>
		</layer>
		<layer id="6" name="733" precision="FP32" type="Convolution">
			<data dilations="1,1" group="1" kernel="7,7" output="64" pads_begin="3,3" pads_end="3,3" strides="2,2"/>
			<input>
				<port id="0">
					<dim>1</dim>
					<dim>3</dim>
					<dim>800</dim>
					<dim>1344</dim>
				</port>
			</input>
			<output>
				<port id="3">
					<dim>1</dim>
					<dim>64</dim>
					<dim>400</dim>
					<dim>672</dim>
				</port>
			</output>
			<blobs>
				<weights offset="76" size="37632"/>
				<biases offset="37708" size="256"/>
			</blobs>
		</layer>
		<layer id="7" name="735" precision="FP32" type="ReLU">
			<input>
				<port id="0">
					<dim>1</dim>
					<dim>64</dim>
					<dim>400</dim>
					<dim>672</dim>
				</port>
			</input>
			<output>
				<port id="1">
					<dim>1</dim>
					<dim>64</dim>
					<dim>400</dim>
					<dim>672</dim>
				</port>
			</output>
		</layer>
		<layer id="8" name="736" precision="FP32" type="Pooling">
			<data exclude-pad="true" kernel="3,3" pads_begin="1,1" pads_end="1,1" pool-method="max" rounding_type="floor" strides="2,2"/>
			<input>
				<port id="0">
					<dim>1</dim>
					<dim>64</dim>
					<dim>400</dim>
					<dim>672</dim>
				</port>
			</input>
			<output>
				<port id="1">
					<dim>1</dim>
					<dim>64</dim>
					<dim>200</dim>
					<dim>336</dim>
				</port>
			</output>
		</layer>
		<layer id="9" name="737" precision="FP32" type="Convolution">
			<data dilations="1,1" group="1" kernel="1,1" output="256" pads_begin="0,0" pads_end="0,0" strides="1,1"/>
			<input>
				<port id="0">
					<dim>1</dim>
					<dim>64</dim>
					<dim>200</dim>
					<dim>336</dim>
				</port>
			</input>
			<output>
				<port id="3">
					<dim>1</dim>
					<dim>256</dim>
					<dim>200</dim>
					<dim>336</dim>
				</port>
			</output>
			<blobs>
				<weights offset="37964" size="65536"/>
				<biases offset="103500" size="1024"/>
			</blobs>
		</layer>
		<layer id="10" name="739" precision="FP32" type="ReLU">
			<input>
				<port id="0">
					<dim>1</dim>
					<dim>256</dim>
					<dim>200</dim>
					<dim>336</dim>
				</port>
			</input>
			<output>
				<port id="1">
					<dim>1</dim>
					<dim>256</dim>
					<dim>200</dim>
					<dim>336</dim>
				</port>
			</output>
		</layer>
		<layer id="11" name="740" precision="FP32" type="Convolution">
			<data dilations="1,1" group="32" kernel="3,3" output="256" pads_begin="1,1" pads_end="1,1" strides="1,1"/>
			<input>
				<port id="0">
					<dim>1</dim>
					<dim>256</dim>
					<dim>200</dim>
					<dim>336</dim>
				</port>
			</input>
			<output>
				<port id="3">
					<dim>1</dim>
					<dim>256</dim>
					<dim>200</dim>
					<dim>336</dim>
				</port>
			</output>
			<blobs>
				<weights offset="104524" size="73728"/>
				<biases offset="178252" size="1024"/>
			</blobs>
		</layer>
		<layer id="12" name="742" precision="FP32" type="ReLU">
			<input>
				<port id="0">
					<dim>1</dim>
					<dim>256</dim>
					<dim>200</dim>
					<dim>336</dim>
				</port>
			</input>
			<output>
				<port id="1">
					<dim>1</dim>
					<dim>256</dim>
					<dim>200</dim>
					<dim>336</dim>
				</port>
			</output>
		</layer>
		<layer id="13" name="743" precision="FP32" type="Convolution">
			<data dilations="1,1" group="1" kernel="1,1" output="256" pads_begin="0,0" pads_end="0,0" strides="1,1"/>
			<input>
				<port id="0">
					<dim>1</dim>
					<dim>256</dim>
					<dim>200</dim>
					<dim>336</dim>
				</port>
			</input>
			<output>
				<port id="3">
					<dim>1</dim>
					<dim>256</dim>
					<dim>200</dim>
					<dim>336</dim>
				</port>
			</output>
			<blobs>
				<weights offset="179276" size="262144"/>
				<biases offset="441420" size="1024"/>
			</blobs>
		</layer>
		<layer id="14" name="745" precision="FP32" type="Convolution">
			<data dilations="1,1" group="1" kernel="1,1" output="256" pads_begin="0,0" pads_end="0,0" strides="1,1"/>
			<input>
				<port id="0">
					<dim>1</dim>
					<dim>64</dim>
					<dim>200</dim>
					<dim>336</dim>
				</port>
			</input>
			<output>
				<port id="3">
					<dim>1</dim>
					<dim>256</dim>
					<dim>200</dim>
					<dim>336</dim>
				</port>
			</output>
			<blobs>
				<weights offset="442444" size="65536"/>
				<biases offset="507980" size="1024"/>
			</blobs>
		</layer>
		<layer id="15" name="747" precision="FP32" type="Eltwise">
			<data operation="sum"/>
			<input>
				<port id="0">
					<dim>1</dim>
					<dim>256</dim>
					<dim>200</dim>
					<dim>336</dim>
				</port>
				<port id="1">
					<dim>1</dim>
					<dim>256</dim>
					<dim>200</dim>
					<dim>336</dim>
				</port>
			</input>
			<output>
				<port id="2">
					<dim>1</dim>
					<dim>256</dim>
					<dim>200</dim>
					<dim>336</dim>
				</port>
			</output>
		</layer>
		<layer id="16" name="748" precision="FP32" type="ReLU">
			<input>
				<port id="0">
					<dim>1</dim>
					<dim>256</dim>
					<dim>200</dim>
					<dim>336</dim>
				</port>
			</input>
			<output>
				<port id="1">
					<dim>1</dim>
					<dim>256</dim>
					<dim>200</dim>
					<dim>336</dim>
				</port>
			</output>
		</layer>
		<layer id="17" name="749" precision="FP32" type="Convolution">
			<data dilations="1,1" group="1" kernel="1,1" output="256" pads_begin="0,0" pads_end="0,0" strides="1,1"/>
			<input>
				<port id="0">
					<dim>1</dim>
					<dim>256</dim>
					<dim>200</dim>
					<dim>336</dim>
				</port>
			</input>
			<output>
				<port id="3">
					<dim>1</dim>
					<dim>256</dim>
					<dim>200</dim>
					<dim>336</dim>
				</port>
			</output>
			<blobs>
				<weights offset="509004" size="262144"/>
				<biases offset="771148" size="1024"/>
			</blobs>
		</layer>
		<layer id="18" name="751" precision="FP32" type="ReLU">
			<input>
				<port id="0">
					<dim>1</dim>
					<dim>256</dim>
					<dim>200</dim>
					<dim>336</dim>
				</port>
			</input>
			<output>
				<port id="1">
					<dim>1</dim>
					<dim>256</dim>
					<dim>200</dim>
					<dim>336</dim>
				</port>
			</output>
		</layer>
		<layer id="19" name="752" precision="FP32" type="Convolution">
			<data dilations="1,1" group="32" kernel="3,3" output="256" pads_begin="1,1" pads_end="1,1" strides="1,1"/>
			<input>
				<port id="0">
					<dim>1</dim>
					<dim>256</dim>
					<dim>200</dim>
					<dim>336</dim>
				</port>
			</input>
			<output>
				<port id="3">
					<dim>1</dim>
					<dim>256</dim>
					<dim>200</dim>
					<dim>336</dim>
				</port>
			</output>
			<blobs>
				<weights offset="772172" size="73728"/>
				<biases offset="845900" size="1024"/>
			</blobs>
		</layer>
		<layer id="20" name="754" precision="FP32" type="ReLU">
			<input>
				<port id="0">
					<dim>1</dim>
					<dim>256</dim>
					<dim>200</dim>
					<dim>336</dim>
				</port>
			</input>
			<output>
				<port id="1">
					<dim>1</dim>
					<dim>256</dim>
					<dim>200</dim>
					<dim>336</dim>
				</port>
			</output>
		</layer>
		<layer id="21" name="755" precision="FP32" type="Convolution">
			<data dilations="1,1" group="1" kernel="1,1" output="256" pads_begin="0,0" pads_end="0,0" strides="1,1"/>
			<input>
				<port id="0">
					<dim>1</dim>
					<dim>256</dim>
					<dim>200</dim>
					<dim>336</dim>
				</port>
			</input>
			<output>
				<port id="3">
					<dim>1</dim>
					<dim>256</dim>
					<dim>200</dim>
					<dim>336</dim>
				</port>
			</output>
			<blobs>
				<weights offset="846924" size="262144"/>
				<biases offset="1109068" size="1024"/>
			</blobs>
		</layer>
		<layer id="22" name="757" precision="FP32" type="Eltwise">
			<data operation="sum"/>
			<input>
				<port id="0">
					<dim>1</dim>
					<dim>256</dim>
					<dim>200</dim>
					<dim>336</dim>
				</port>
				<port id="1">
					<dim>1</dim>
					<dim>256</dim>
					<dim>200</dim>
					<dim>336</dim>
				</port>
			</input>
			<output>
				<port id="2">
					<dim>1</dim>
					<dim>256</dim>
					<dim>200</dim>
					<dim>336</dim>
				</port>
			</output>
		</layer>
		<layer id="23" name="758" precision="FP32" type="ReLU">
			<input>
				<port id="0">
					<dim>1</dim>
					<dim>256</dim>
					<dim>200</dim>
					<dim>336</dim>
				</port>
			</input>
			<output>
				<port id="1">
					<dim>1</dim>
					<dim>256</dim>
					<dim>200</dim>
					<dim>336</dim>
				</port>
			</output>
		</layer>
		<layer id="24" name="759" precision="FP32" type="Convolution">
			<data dilations="1,1" group="1" kernel="1,1" output="256" pads_begin="0,0" pads_end="0,0" strides="1,1"/>
			<input>
				<port id="0">
					<dim>1</dim>
					<dim>256</dim>
					<dim>200</dim>
					<dim>336</dim>
				</port>
			</input>
			<output>
				<port id="3">
					<dim>1</dim>
					<dim>256</dim>
					<dim>200</dim>
					<dim>336</dim>
				</port>
			</output>
			<blobs>
				<weights offset="1110092" size="262144"/>
				<biases offset="1372236" size="1024"/>
			</blobs>
		</layer>
		<layer id="25" name="761" precision="FP32" type="ReLU">
			<input>
				<port id="0">
					<dim>1</dim>
					<dim>256</dim>
					<dim>200</dim>
					<dim>336</dim>
				</port>
			</input>
			<output>
				<port id="1">
					<dim>1</dim>
					<dim>256</dim>
					<dim>200</dim>
					<dim>336</dim>
				</port>
			</output>
		</layer>
		<layer id="26" name="762" precision="FP32" type="Convolution">
			<data dilations="1,1" group="32" kernel="3,3" output="256" pads_begin="1,1" pads_end="1,1" strides="1,1"/>
			<input>
				<port id="0">
					<dim>1</dim>
					<dim>256</dim>
					<dim>200</dim>
					<dim>336</dim>
				</port>
			</input>
			<output>
				<port id="3">
					<dim>1</dim>
					<dim>256</dim>
					<dim>200</dim>
					<dim>336</dim>
				</port>
			</output>
			<blobs>
				<weights offset="1373260" size="73728"/>
				<biases offset="1446988" size="1024"/>
			</blobs>
		</layer>
		<layer id="27" name="764" precision="FP32" type="ReLU">
			<input>
				<port id="0">
					<dim>1</dim>
					<dim>256</dim>
					<dim>200</dim>
					<dim>336</dim>
				</port>
			</input>
			<output>
				<port id="1">
					<dim>1</dim>
					<dim>256</dim>
					<dim>200</dim>
					<dim>336</dim>
				</port>
			</output>
		</layer>
		<layer id="28" name="765" precision="FP32" type="Convolution">
			<data dilations="1,1" group="1" kernel="1,1" output="256" pads_begin="0,0" pads_end="0,0" strides="1,1"/>
			<input>
				<port id="0">
					<dim>1</dim>
					<dim>256</dim>
					<dim>200</dim>
					<dim>336</dim>
				</port>
			</input>
			<output>
				<port id="3">
					<dim>1</dim>
					<dim>256</dim>
					<dim>200</dim>
					<dim>336</dim>
				</port>
			</output>
			<blobs>
				<weights offset="1448012" size="262144"/>
				<biases offset="1710156" size="1024"/>
			</blobs>
		</layer>
		<layer id="29" name="767" precision="FP32" type="Eltwise">
			<data operation="sum"/>
			<input>
				<port id="0">
					<dim>1</dim>
					<dim>256</dim>
					<dim>200</dim>
					<dim>336</dim>
				</port>
				<port id="1">
					<dim>1</dim>
					<dim>256</dim>
					<dim>200</dim>
					<dim>336</dim>
				</port>
			</input>
			<output>
				<port id="2">
					<dim>1</dim>
					<dim>256</dim>
					<dim>200</dim>
					<dim>336</dim>
				</port>
			</output>
		</layer>
		<layer id="30" name="768" precision="FP32" type="ReLU">
			<input>
				<port id="0">
					<dim>1</dim>
					<dim>256</dim>
					<dim>200</dim>
					<dim>336</dim>
				</port>
			</input>
			<output>
				<port id="1">
					<dim>1</dim>
					<dim>256</dim>
					<dim>200</dim>
					<dim>336</dim>
				</port>
			</output>
		</layer>
		<layer id="31" name="1085" precision="FP32" type="Convolution">
			<data dilations="1,1" group="1" kernel="1,1" output="256" pads_begin="0,0" pads_end="0,0" strides="1,1"/>
			<input>
				<port id="0">
					<dim>1</dim>
					<dim>256</dim>
					<dim>200</dim>
					<dim>336</dim>
				</port>
			</input>
			<output>
				<port id="3">
					<dim>1</dim>
					<dim>256</dim>
					<dim>200</dim>
					<dim>336</dim>
				</port>
			</output>
			<blobs>
				<weights offset="1711180" size="262144"/>
				<biases offset="1973324" size="1024"/>
			</blobs>
		</layer>
		<layer id="32" name="769" precision="FP32" type="Convolution">
			<data dilations="1,1" group="1" kernel="1,1" output="512" pads_begin="0,0" pads_end="0,0" strides="2,2"/>
			<input>
				<port id="0">
					<dim>1</dim>
					<dim>256</dim>
					<dim>200</dim>
					<dim>336</dim>
				</port>
			</input>
			<output>
				<port id="3">
					<dim>1</dim>
					<dim>512</dim>
					<dim>100</dim>
					<dim>168</dim>
				</port>
			</output>
			<blobs>
				<weights offset="1974348" size="524288"/>
				<biases offset="2498636" size="2048"/>
			</blobs>
		</layer>
		<layer id="33" name="771" precision="FP32" type="ReLU">
			<input>
				<port id="0">
					<dim>1</dim>
					<dim>512</dim>
					<dim>100</dim>
					<dim>168</dim>
				</port>
			</input>
			<output>
				<port id="1">
					<dim>1</dim>
					<dim>512</dim>
					<dim>100</dim>
					<dim>168</dim>
				</port>
			</output>
		</layer>
		<layer id="34" name="772" precision="FP32" type="Convolution">
			<data dilations="1,1" group="32" kernel="3,3" output="512" pads_begin="1,1" pads_end="1,1" strides="1,1"/>
			<input>
				<port id="0">
					<dim>1</dim>
					<dim>512</dim>
					<dim>100</dim>
					<dim>168</dim>
				</port>
			</input>
			<output>
				<port id="3">
					<dim>1</dim>
					<dim>512</dim>
					<dim>100</dim>
					<dim>168</dim>
				</port>
			</output>
			<blobs>
				<weights offset="2500684" size="294912"/>
				<biases offset="2795596" size="2048"/>
			</blobs>
		</layer>
		<layer id="35" name="774" precision="FP32" type="ReLU">
			<input>
				<port id="0">
					<dim>1</dim>
					<dim>512</dim>
					<dim>100</dim>
					<dim>168</dim>
				</port>
			</input>
			<output>
				<port id="1">
					<dim>1</dim>
					<dim>512</dim>
					<dim>100</dim>
					<dim>168</dim>
				</port>
			</output>
		</layer>
		<layer id="36" name="775" precision="FP32" type="Convolution">
			<data dilations="1,1" group="1" kernel="1,1" output="512" pads_begin="0,0" pads_end="0,0" strides="1,1"/>
			<input>
				<port id="0">
					<dim>1</dim>
					<dim>512</dim>
					<dim>100</dim>
					<dim>168</dim>
				</port>
			</input>
			<output>
				<port id="3">
					<dim>1</dim>
					<dim>512</dim>
					<dim>100</dim>
					<dim>168</dim>
				</port>
			</output>
			<blobs>
				<weights offset="2797644" size="1048576"/>
				<biases offset="3846220" size="2048"/>
			</blobs>
		</layer>
		<layer id="37" name="777" precision="FP32" type="Convolution">
			<data dilations="1,1" group="1" kernel="1,1" output="512" pads_begin="0,0" pads_end="0,0" strides="2,2"/>
			<input>
				<port id="0">
					<dim>1</dim>
					<dim>256</dim>
					<dim>200</dim>
					<dim>336</dim>
				</port>
			</input>
			<output>
				<port id="3">
					<dim>1</dim>
					<dim>512</dim>
					<dim>100</dim>
					<dim>168</dim>
				</port>
			</output>
			<blobs>
				<weights offset="3848268" size="524288"/>
				<biases offset="4372556" size="2048"/>
			</blobs>
		</layer>
		<layer id="38" name="779" precision="FP32" type="Eltwise">
			<data operation="sum"/>
			<input>
				<port id="0">
					<dim>1</dim>
					<dim>512</dim>
					<dim>100</dim>
					<dim>168</dim>
				</port>
				<port id="1">
					<dim>1</dim>
					<dim>512</dim>
					<dim>100</dim>
					<dim>168</dim>
				</port>
			</input>
			<output>
				<port id="2">
					<dim>1</dim>
					<dim>512</dim>
					<dim>100</dim>
					<dim>168</dim>
				</port>
			</output>
		</layer>
		<layer id="39" name="780" precision="FP32" type="ReLU">
			<input>
				<port id="0">
					<dim>1</dim>
					<dim>512</dim>
					<dim>100</dim>
					<dim>168</dim>
				</port>
			</input>
			<output>
				<port id="1">
					<dim>1</dim>
					<dim>512</dim>
					<dim>100</dim>
					<dim>168</dim>
				</port>
			</output>
		</layer>
		<layer id="40" name="781" precision="FP32" type="Convolution">
			<data dilations="1,1" group="1" kernel="1,1" output="512" pads_begin="0,0" pads_end="0,0" strides="1,1"/>
			<input>
				<port id="0">
					<dim>1</dim>
					<dim>512</dim>
					<dim>100</dim>
					<dim>168</dim>
				</port>
			</input>
			<output>
				<port id="3">
					<dim>1</dim>
					<dim>512</dim>
					<dim>100</dim>
					<dim>168</dim>
				</port>
			</output>
			<blobs>
				<weights offset="4374604" size="1048576"/>
				<biases offset="5423180" size="2048"/>
			</blobs>
		</layer>
		<layer id="41" name="783" precision="FP32" type="ReLU">
			<input>
				<port id="0">
					<dim>1</dim>
					<dim>512</dim>
					<dim>100</dim>
					<dim>168</dim>
				</port>
			</input>
			<output>
				<port id="1">
					<dim>1</dim>
					<dim>512</dim>
					<dim>100</dim>
					<dim>168</dim>
				</port>
			</output>
		</layer>
		<layer id="42" name="784" precision="FP32" type="Convolution">
			<data dilations="1,1" group="32" kernel="3,3" output="512" pads_begin="1,1" pads_end="1,1" strides="1,1"/>
			<input>
				<port id="0">
					<dim>1</dim>
					<dim>512</dim>
					<dim>100</dim>
					<dim>168</dim>
				</port>
			</input>
			<output>
				<port id="3">
					<dim>1</dim>
					<dim>512</dim>
					<dim>100</dim>
					<dim>168</dim>
				</port>
			</output>
			<blobs>
				<weights offset="5425228" size="294912"/>
				<biases offset="5720140" size="2048"/>
			</blobs>
		</layer>
		<layer id="43" name="786" precision="FP32" type="ReLU">
			<input>
				<port id="0">
					<dim>1</dim>
					<dim>512</dim>
					<dim>100</dim>
					<dim>168</dim>
				</port>
			</input>
			<output>
				<port id="1">
					<dim>1</dim>
					<dim>512</dim>
					<dim>100</dim>
					<dim>168</dim>
				</port>
			</output>
		</layer>
		<layer id="44" name="787" precision="FP32" type="Convolution">
			<data dilations="1,1" group="1" kernel="1,1" output="512" pads_begin="0,0" pads_end="0,0" strides="1,1"/>
			<input>
				<port id="0">
					<dim>1</dim>
					<dim>512</dim>
					<dim>100</dim>
					<dim>168</dim>
				</port>
			</input>
			<output>
				<port id="3">
					<dim>1</dim>
					<dim>512</dim>
					<dim>100</dim>
					<dim>168</dim>
				</port>
			</output>
			<blobs>
				<weights offset="5722188" size="1048576"/>
				<biases offset="6770764" size="2048"/>
			</blobs>
		</layer>
		<layer id="45" name="789" precision="FP32" type="Eltwise">
			<data operation="sum"/>
			<input>
				<port id="0">
					<dim>1</dim>
					<dim>512</dim>
					<dim>100</dim>
					<dim>168</dim>
				</port>
				<port id="1">
					<dim>1</dim>
					<dim>512</dim>
					<dim>100</dim>
					<dim>168</dim>
				</port>
			</input>
			<output>
				<port id="2">
					<dim>1</dim>
					<dim>512</dim>
					<dim>100</dim>
					<dim>168</dim>
				</port>
			</output>
		</layer>
		<layer id="46" name="790" precision="FP32" type="ReLU">
			<input>
				<port id="0">
					<dim>1</dim>
					<dim>512</dim>
					<dim>100</dim>
					<dim>168</dim>
				</port>
			</input>
			<output>
				<port id="1">
					<dim>1</dim>
					<dim>512</dim>
					<dim>100</dim>
					<dim>168</dim>
				</port>
			</output>
		</layer>
		<layer id="47" name="791" precision="FP32" type="Convolution">
			<data dilations="1,1" group="1" kernel="1,1" output="512" pads_begin="0,0" pads_end="0,0" strides="1,1"/>
			<input>
				<port id="0">
					<dim>1</dim>
					<dim>512</dim>
					<dim>100</dim>
					<dim>168</dim>
				</port>
			</input>
			<output>
				<port id="3">
					<dim>1</dim>
					<dim>512</dim>
					<dim>100</dim>
					<dim>168</dim>
				</port>
			</output>
			<blobs>
				<weights offset="6772812" size="1048576"/>
				<biases offset="7821388" size="2048"/>
			</blobs>
		</layer>
		<layer id="48" name="793" precision="FP32" type="ReLU">
			<input>
				<port id="0">
					<dim>1</dim>
					<dim>512</dim>
					<dim>100</dim>
					<dim>168</dim>
				</port>
			</input>
			<output>
				<port id="1">
					<dim>1</dim>
					<dim>512</dim>
					<dim>100</dim>
					<dim>168</dim>
				</port>
			</output>
		</layer>
		<layer id="49" name="794" precision="FP32" type="Convolution">
			<data dilations="1,1" group="32" kernel="3,3" output="512" pads_begin="1,1" pads_end="1,1" strides="1,1"/>
			<input>
				<port id="0">
					<dim>1</dim>
					<dim>512</dim>
					<dim>100</dim>
					<dim>168</dim>
				</port>
			</input>
			<output>
				<port id="3">
					<dim>1</dim>
					<dim>512</dim>
					<dim>100</dim>
					<dim>168</dim>
				</port>
			</output>
			<blobs>
				<weights offset="7823436" size="294912"/>
				<biases offset="8118348" size="2048"/>
			</blobs>
		</layer>
		<layer id="50" name="796" precision="FP32" type="ReLU">
			<input>
				<port id="0">
					<dim>1</dim>
					<dim>512</dim>
					<dim>100</dim>
					<dim>168</dim>
				</port>
			</input>
			<output>
				<port id="1">
					<dim>1</dim>
					<dim>512</dim>
					<dim>100</dim>
					<dim>168</dim>
				</port>
			</output>
		</layer>
		<layer id="51" name="797" precision="FP32" type="Convolution">
			<data dilations="1,1" group="1" kernel="1,1" output="512" pads_begin="0,0" pads_end="0,0" strides="1,1"/>
			<input>
				<port id="0">
					<dim>1</dim>
					<dim>512</dim>
					<dim>100</dim>
					<dim>168</dim>
				</port>
			</input>
			<output>
				<port id="3">
					<dim>1</dim>
					<dim>512</dim>
					<dim>100</dim>
					<dim>168</dim>
				</port>
			</output>
			<blobs>
				<weights offset="8120396" size="1048576"/>
				<biases offset="9168972" size="2048"/>
			</blobs>
		</layer>
		<layer id="52" name="799" precision="FP32" type="Eltwise">
			<data operation="sum"/>
			<input>
				<port id="0">
					<dim>1</dim>
					<dim>512</dim>
					<dim>100</dim>
					<dim>168</dim>
				</port>
				<port id="1">
					<dim>1</dim>
					<dim>512</dim>
					<dim>100</dim>
					<dim>168</dim>
				</port>
			</input>
			<output>
				<port id="2">
					<dim>1</dim>
					<dim>512</dim>
					<dim>100</dim>
					<dim>168</dim>
				</port>
			</output>
		</layer>
		<layer id="53" name="800" precision="FP32" type="ReLU">
			<input>
				<port id="0">
					<dim>1</dim>
					<dim>512</dim>
					<dim>100</dim>
					<dim>168</dim>
				</port>
			</input>
			<output>
				<port id="1">
					<dim>1</dim>
					<dim>512</dim>
					<dim>100</dim>
					<dim>168</dim>
				</port>
			</output>
		</layer>
		<layer id="54" name="801" precision="FP32" type="Convolution">
			<data dilations="1,1" group="1" kernel="1,1" output="512" pads_begin="0,0" pads_end="0,0" strides="1,1"/>
			<input>
				<port id="0">
					<dim>1</dim>
					<dim>512</dim>
					<dim>100</dim>
					<dim>168</dim>
				</port>
			</input>
			<output>
				<port id="3">
					<dim>1</dim>
					<dim>512</dim>
					<dim>100</dim>
					<dim>168</dim>
				</port>
			</output>
			<blobs>
				<weights offset="9171020" size="1048576"/>
				<biases offset="10219596" size="2048"/>
			</blobs>
		</layer>
		<layer id="55" name="803" precision="FP32" type="ReLU">
			<input>
				<port id="0">
					<dim>1</dim>
					<dim>512</dim>
					<dim>100</dim>
					<dim>168</dim>
				</port>
			</input>
			<output>
				<port id="1">
					<dim>1</dim>
					<dim>512</dim>
					<dim>100</dim>
					<dim>168</dim>
				</port>
			</output>
		</layer>
		<layer id="56" name="804" precision="FP32" type="Convolution">
			<data dilations="1,1" group="32" kernel="3,3" output="512" pads_begin="1,1" pads_end="1,1" strides="1,1"/>
			<input>
				<port id="0">
					<dim>1</dim>
					<dim>512</dim>
					<dim>100</dim>
					<dim>168</dim>
				</port>
			</input>
			<output>
				<port id="3">
					<dim>1</dim>
					<dim>512</dim>
					<dim>100</dim>
					<dim>168</dim>
				</port>
			</output>
			<blobs>
				<weights offset="10221644" size="294912"/>
				<biases offset="10516556" size="2048"/>
			</blobs>
		</layer>
		<layer id="57" name="806" precision="FP32" type="ReLU">
			<input>
				<port id="0">
					<dim>1</dim>
					<dim>512</dim>
					<dim>100</dim>
					<dim>168</dim>
				</port>
			</input>
			<output>
				<port id="1">
					<dim>1</dim>
					<dim>512</dim>
					<dim>100</dim>
					<dim>168</dim>
				</port>
			</output>
		</layer>
		<layer id="58" name="807" precision="FP32" type="Convolution">
			<data dilations="1,1" group="1" kernel="1,1" output="512" pads_begin="0,0" pads_end="0,0" strides="1,1"/>
			<input>
				<port id="0">
					<dim>1</dim>
					<dim>512</dim>
					<dim>100</dim>
					<dim>168</dim>
				</port>
			</input>
			<output>
				<port id="3">
					<dim>1</dim>
					<dim>512</dim>
					<dim>100</dim>
					<dim>168</dim>
				</port>
			</output>
			<blobs>
				<weights offset="10518604" size="1048576"/>
				<biases offset="11567180" size="2048"/>
			</blobs>
		</layer>
		<layer id="59" name="809" precision="FP32" type="Eltwise">
			<data operation="sum"/>
			<input>
				<port id="0">
					<dim>1</dim>
					<dim>512</dim>
					<dim>100</dim>
					<dim>168</dim>
				</port>
				<port id="1">
					<dim>1</dim>
					<dim>512</dim>
					<dim>100</dim>
					<dim>168</dim>
				</port>
			</input>
			<output>
				<port id="2">
					<dim>1</dim>
					<dim>512</dim>
					<dim>100</dim>
					<dim>168</dim>
				</port>
			</output>
		</layer>
		<layer id="60" name="810" precision="FP32" type="ReLU">
			<input>
				<port id="0">
					<dim>1</dim>
					<dim>512</dim>
					<dim>100</dim>
					<dim>168</dim>
				</port>
			</input>
			<output>
				<port id="1">
					<dim>1</dim>
					<dim>512</dim>
					<dim>100</dim>
					<dim>168</dim>
				</port>
			</output>
		</layer>
		<layer id="61" name="1081" precision="FP32" type="Convolution">
			<data dilations="1,1" group="1" kernel="1,1" output="256" pads_begin="0,0" pads_end="0,0" strides="1,1"/>
			<input>
				<port id="0">
					<dim>1</dim>
					<dim>512</dim>
					<dim>100</dim>
					<dim>168</dim>
				</port>
			</input>
			<output>
				<port id="3">
					<dim>1</dim>
					<dim>256</dim>
					<dim>100</dim>
					<dim>168</dim>
				</port>
			</output>
			<blobs>
				<weights offset="11569228" size="524288"/>
				<biases offset="12093516" size="1024"/>
			</blobs>
		</layer>
		<layer id="62" name="811" precision="FP32" type="Convolution">
			<data dilations="1,1" group="1" kernel="1,1" output="1024" pads_begin="0,0" pads_end="0,0" strides="2,2"/>
			<input>
				<port id="0">
					<dim>1</dim>
					<dim>512</dim>
					<dim>100</dim>
					<dim>168</dim>
				</port>
			</input>
			<output>
				<port id="3">
					<dim>1</dim>
					<dim>1024</dim>
					<dim>50</dim>
					<dim>84</dim>
				</port>
			</output>
			<blobs>
				<weights offset="12094540" size="2097152"/>
				<biases offset="14191692" size="4096"/>
			</blobs>
		</layer>
		<layer id="63" name="813" precision="FP32" type="ReLU">
			<input>
				<port id="0">
					<dim>1</dim>
					<dim>1024</dim>
					<dim>50</dim>
					<dim>84</dim>
				</port>
			</input>
			<output>
				<port id="1">
					<dim>1</dim>
					<dim>1024</dim>
					<dim>50</dim>
					<dim>84</dim>
				</port>
			</output>
		</layer>
		<layer id="64" name="814" precision="FP32" type="Convolution">
			<data dilations="1,1" group="32" kernel="3,3" output="1024" pads_begin="1,1" pads_end="1,1" strides="1,1"/>
			<input>
				<port id="0">
					<dim>1</dim>
					<dim>1024</dim>
					<dim>50</dim>
					<dim>84</dim>
				</port>
			</input>
			<output>
				<port id="3">
					<dim>1</dim>
					<dim>1024</dim>
					<dim>50</dim>
					<dim>84</dim>
				</port>
			</output>
			<blobs>
				<weights offset="14195788" size="1179648"/>
				<biases offset="15375436" size="4096"/>
			</blobs>
		</layer>
		<layer id="65" name="816" precision="FP32" type="ReLU">
			<input>
				<port id="0">
					<dim>1</dim>
					<dim>1024</dim>
					<dim>50</dim>
					<dim>84</dim>
				</port>
			</input>
			<output>
				<port id="1">
					<dim>1</dim>
					<dim>1024</dim>
					<dim>50</dim>
					<dim>84</dim>
				</port>
			</output>
		</layer>
		<layer id="66" name="817" precision="FP32" type="Convolution">
			<data dilations="1,1" group="1" kernel="1,1" output="1024" pads_begin="0,0" pads_end="0,0" strides="1,1"/>
			<input>
				<port id="0">
					<dim>1</dim>
					<dim>1024</dim>
					<dim>50</dim>
					<dim>84</dim>
				</port>
			</input>
			<output>
				<port id="3">
					<dim>1</dim>
					<dim>1024</dim>
					<dim>50</dim>
					<dim>84</dim>
				</port>
			</output>
			<blobs>
				<weights offset="15379532" size="4194304"/>
				<biases offset="19573836" size="4096"/>
			</blobs>
		</layer>
		<layer id="67" name="819" precision="FP32" type="Convolution">
			<data dilations="1,1" group="1" kernel="1,1" output="1024" pads_begin="0,0" pads_end="0,0" strides="2,2"/>
			<input>
				<port id="0">
					<dim>1</dim>
					<dim>512</dim>
					<dim>100</dim>
					<dim>168</dim>
				</port>
			</input>
			<output>
				<port id="3">
					<dim>1</dim>
					<dim>1024</dim>
					<dim>50</dim>
					<dim>84</dim>
				</port>
			</output>
			<blobs>
				<weights offset="19577932" size="2097152"/>
				<biases offset="21675084" size="4096"/>
			</blobs>
		</layer>
		<layer id="68" name="821" precision="FP32" type="Eltwise">
			<data operation="sum"/>
			<input>
				<port id="0">
					<dim>1</dim>
					<dim>1024</dim>
					<dim>50</dim>
					<dim>84</dim>
				</port>
				<port id="1">
					<dim>1</dim>
					<dim>1024</dim>
					<dim>50</dim>
					<dim>84</dim>
				</port>
			</input>
			<output>
				<port id="2">
					<dim>1</dim>
					<dim>1024</dim>
					<dim>50</dim>
					<dim>84</dim>
				</port>
			</output>
		</layer>
		<layer id="69" name="822" precision="FP32" type="ReLU">
			<input>
				<port id="0">
					<dim>1</dim>
					<dim>1024</dim>
					<dim>50</dim>
					<dim>84</dim>
				</port>
			</input>
			<output>
				<port id="1">
					<dim>1</dim>
					<dim>1024</dim>
					<dim>50</dim>
					<dim>84</dim>
				</port>
			</output>
		</layer>
		<layer id="70" name="823" precision="FP32" type="Convolution">
			<data dilations="1,1" group="1" kernel="1,1" output="1024" pads_begin="0,0" pads_end="0,0" strides="1,1"/>
			<input>
				<port id="0">
					<dim>1</dim>
					<dim>1024</dim>
					<dim>50</dim>
					<dim>84</dim>
				</port>
			</input>
			<output>
				<port id="3">
					<dim>1</dim>
					<dim>1024</dim>
					<dim>50</dim>
					<dim>84</dim>
				</port>
			</output>
			<blobs>
				<weights offset="21679180" size="4194304"/>
				<biases offset="25873484" size="4096"/>
			</blobs>
		</layer>
		<layer id="71" name="825" precision="FP32" type="ReLU">
			<input>
				<port id="0">
					<dim>1</dim>
					<dim>1024</dim>
					<dim>50</dim>
					<dim>84</dim>
				</port>
			</input>
			<output>
				<port id="1">
					<dim>1</dim>
					<dim>1024</dim>
					<dim>50</dim>
					<dim>84</dim>
				</port>
			</output>
		</layer>
		<layer id="72" name="826" precision="FP32" type="Convolution">
			<data dilations="1,1" group="32" kernel="3,3" output="1024" pads_begin="1,1" pads_end="1,1" strides="1,1"/>
			<input>
				<port id="0">
					<dim>1</dim>
					<dim>1024</dim>
					<dim>50</dim>
					<dim>84</dim>
				</port>
			</input>
			<output>
				<port id="3">
					<dim>1</dim>
					<dim>1024</dim>
					<dim>50</dim>
					<dim>84</dim>
				</port>
			</output>
			<blobs>
				<weights offset="25877580" size="1179648"/>
				<biases offset="27057228" size="4096"/>
			</blobs>
		</layer>
		<layer id="73" name="828" precision="FP32" type="ReLU">
			<input>
				<port id="0">
					<dim>1</dim>
					<dim>1024</dim>
					<dim>50</dim>
					<dim>84</dim>
				</port>
			</input>
			<output>
				<port id="1">
					<dim>1</dim>
					<dim>1024</dim>
					<dim>50</dim>
					<dim>84</dim>
				</port>
			</output>
		</layer>
		<layer id="74" name="829" precision="FP32" type="Convolution">
			<data dilations="1,1" group="1" kernel="1,1" output="1024" pads_begin="0,0" pads_end="0,0" strides="1,1"/>
			<input>
				<port id="0">
					<dim>1</dim>
					<dim>1024</dim>
					<dim>50</dim>
					<dim>84</dim>
				</port>
			</input>
			<output>
				<port id="3">
					<dim>1</dim>
					<dim>1024</dim>
					<dim>50</dim>
					<dim>84</dim>
				</port>
			</output>
			<blobs>
				<weights offset="27061324" size="4194304"/>
				<biases offset="31255628" size="4096"/>
			</blobs>
		</layer>
		<layer id="75" name="831" precision="FP32" type="Eltwise">
			<data operation="sum"/>
			<input>
				<port id="0">
					<dim>1</dim>
					<dim>1024</dim>
					<dim>50</dim>
					<dim>84</dim>
				</port>
				<port id="1">
					<dim>1</dim>
					<dim>1024</dim>
					<dim>50</dim>
					<dim>84</dim>
				</port>
			</input>
			<output>
				<port id="2">
					<dim>1</dim>
					<dim>1024</dim>
					<dim>50</dim>
					<dim>84</dim>
				</port>
			</output>
		</layer>
		<layer id="76" name="832" precision="FP32" type="ReLU">
			<input>
				<port id="0">
					<dim>1</dim>
					<dim>1024</dim>
					<dim>50</dim>
					<dim>84</dim>
				</port>
			</input>
			<output>
				<port id="1">
					<dim>1</dim>
					<dim>1024</dim>
					<dim>50</dim>
					<dim>84</dim>
				</port>
			</output>
		</layer>
		<layer id="77" name="833" precision="FP32" type="Convolution">
			<data dilations="1,1" group="1" kernel="1,1" output="1024" pads_begin="0,0" pads_end="0,0" strides="1,1"/>
			<input>
				<port id="0">
					<dim>1</dim>
					<dim>1024</dim>
					<dim>50</dim>
					<dim>84</dim>
				</port>
			</input>
			<output>
				<port id="3">
					<dim>1</dim>
					<dim>1024</dim>
					<dim>50</dim>
					<dim>84</dim>
				</port>
			</output>
			<blobs>
				<weights offset="31259724" size="4194304"/>
				<biases offset="35454028" size="4096"/>
			</blobs>
		</layer>
		<layer id="78" name="835" precision="FP32" type="ReLU">
			<input>
				<port id="0">
					<dim>1</dim>
					<dim>1024</dim>
					<dim>50</dim>
					<dim>84</dim>
				</port>
			</input>
			<output>
				<port id="1">
					<dim>1</dim>
					<dim>1024</dim>
					<dim>50</dim>
					<dim>84</dim>
				</port>
			</output>
		</layer>
		<layer id="79" name="836" precision="FP32" type="Convolution">
			<data dilations="1,1" group="32" kernel="3,3" output="1024" pads_begin="1,1" pads_end="1,1" strides="1,1"/>
			<input>
				<port id="0">
					<dim>1</dim>
					<dim>1024</dim>
					<dim>50</dim>
					<dim>84</dim>
				</port>
			</input>
			<output>
				<port id="3">
					<dim>1</dim>
					<dim>1024</dim>
					<dim>50</dim>
					<dim>84</dim>
				</port>
			</output>
			<blobs>
				<weights offset="35458124" size="1179648"/>
				<biases offset="36637772" size="4096"/>
			</blobs>
		</layer>
		<layer id="80" name="838" precision="FP32" type="ReLU">
			<input>
				<port id="0">
					<dim>1</dim>
					<dim>1024</dim>
					<dim>50</dim>
					<dim>84</dim>
				</port>
			</input>
			<output>
				<port id="1">
					<dim>1</dim>
					<dim>1024</dim>
					<dim>50</dim>
					<dim>84</dim>
				</port>
			</output>
		</layer>
		<layer id="81" name="839" precision="FP32" type="Convolution">
			<data dilations="1,1" group="1" kernel="1,1" output="1024" pads_begin="0,0" pads_end="0,0" strides="1,1"/>
			<input>
				<port id="0">
					<dim>1</dim>
					<dim>1024</dim>
					<dim>50</dim>
					<dim>84</dim>
				</port>
			</input>
			<output>
				<port id="3">
					<dim>1</dim>
					<dim>1024</dim>
					<dim>50</dim>
					<dim>84</dim>
				</port>
			</output>
			<blobs>
				<weights offset="36641868" size="4194304"/>
				<biases offset="40836172" size="4096"/>
			</blobs>
		</layer>
		<layer id="82" name="841" precision="FP32" type="Eltwise">
			<data operation="sum"/>
			<input>
				<port id="0">
					<dim>1</dim>
					<dim>1024</dim>
					<dim>50</dim>
					<dim>84</dim>
				</port>
				<port id="1">
					<dim>1</dim>
					<dim>1024</dim>
					<dim>50</dim>
					<dim>84</dim>
				</port>
			</input>
			<output>
				<port id="2">
					<dim>1</dim>
					<dim>1024</dim>
					<dim>50</dim>
					<dim>84</dim>
				</port>
			</output>
		</layer>
		<layer id="83" name="842" precision="FP32" type="ReLU">
			<input>
				<port id="0">
					<dim>1</dim>
					<dim>1024</dim>
					<dim>50</dim>
					<dim>84</dim>
				</port>
			</input>
			<output>
				<port id="1">
					<dim>1</dim>
					<dim>1024</dim>
					<dim>50</dim>
					<dim>84</dim>
				</port>
			</output>
		</layer>
		<layer id="84" name="843" precision="FP32" type="Convolution">
			<data dilations="1,1" group="1" kernel="1,1" output="1024" pads_begin="0,0" pads_end="0,0" strides="1,1"/>
			<input>
				<port id="0">
					<dim>1</dim>
					<dim>1024</dim>
					<dim>50</dim>
					<dim>84</dim>
				</port>
			</input>
			<output>
				<port id="3">
					<dim>1</dim>
					<dim>1024</dim>
					<dim>50</dim>
					<dim>84</dim>
				</port>
			</output>
			<blobs>
				<weights offset="40840268" size="4194304"/>
				<biases offset="45034572" size="4096"/>
			</blobs>
		</layer>
		<layer id="85" name="845" precision="FP32" type="ReLU">
			<input>
				<port id="0">
					<dim>1</dim>
					<dim>1024</dim>
					<dim>50</dim>
					<dim>84</dim>
				</port>
			</input>
			<output>
				<port id="1">
					<dim>1</dim>
					<dim>1024</dim>
					<dim>50</dim>
					<dim>84</dim>
				</port>
			</output>
		</layer>
		<layer id="86" name="846" precision="FP32" type="Convolution">
			<data dilations="1,1" group="32" kernel="3,3" output="1024" pads_begin="1,1" pads_end="1,1" strides="1,1"/>
			<input>
				<port id="0">
					<dim>1</dim>
					<dim>1024</dim>
					<dim>50</dim>
					<dim>84</dim>
				</port>
			</input>
			<output>
				<port id="3">
					<dim>1</dim>
					<dim>1024</dim>
					<dim>50</dim>
					<dim>84</dim>
				</port>
			</output>
			<blobs>
				<weights offset="45038668" size="1179648"/>
				<biases offset="46218316" size="4096"/>
			</blobs>
		</layer>
		<layer id="87" name="848" precision="FP32" type="ReLU">
			<input>
				<port id="0">
					<dim>1</dim>
					<dim>1024</dim>
					<dim>50</dim>
					<dim>84</dim>
				</port>
			</input>
			<output>
				<port id="1">
					<dim>1</dim>
					<dim>1024</dim>
					<dim>50</dim>
					<dim>84</dim>
				</port>
			</output>
		</layer>
		<layer id="88" name="849" precision="FP32" type="Convolution">
			<data dilations="1,1" group="1" kernel="1,1" output="1024" pads_begin="0,0" pads_end="0,0" strides="1,1"/>
			<input>
				<port id="0">
					<dim>1</dim>
					<dim>1024</dim>
					<dim>50</dim>
					<dim>84</dim>
				</port>
			</input>
			<output>
				<port id="3">
					<dim>1</dim>
					<dim>1024</dim>
					<dim>50</dim>
					<dim>84</dim>
				</port>
			</output>
			<blobs>
				<weights offset="46222412" size="4194304"/>
				<biases offset="50416716" size="4096"/>
			</blobs>
		</layer>
		<layer id="89" name="851" precision="FP32" type="Eltwise">
			<data operation="sum"/>
			<input>
				<port id="0">
					<dim>1</dim>
					<dim>1024</dim>
					<dim>50</dim>
					<dim>84</dim>
				</port>
				<port id="1">
					<dim>1</dim>
					<dim>1024</dim>
					<dim>50</dim>
					<dim>84</dim>
				</port>
			</input>
			<output>
				<port id="2">
					<dim>1</dim>
					<dim>1024</dim>
					<dim>50</dim>
					<dim>84</dim>
				</port>
			</output>
		</layer>
		<layer id="90" name="852" precision="FP32" type="ReLU">
			<input>
				<port id="0">
					<dim>1</dim>
					<dim>1024</dim>
					<dim>50</dim>
					<dim>84</dim>
				</port>
			</input>
			<output>
				<port id="1">
					<dim>1</dim>
					<dim>1024</dim>
					<dim>50</dim>
					<dim>84</dim>
				</port>
			</output>
		</layer>
		<layer id="91" name="853" precision="FP32" type="Convolution">
			<data dilations="1,1" group="1" kernel="1,1" output="1024" pads_begin="0,0" pads_end="0,0" strides="1,1"/>
			<input>
				<port id="0">
					<dim>1</dim>
					<dim>1024</dim>
					<dim>50</dim>
					<dim>84</dim>
				</port>
			</input>
			<output>
				<port id="3">
					<dim>1</dim>
					<dim>1024</dim>
					<dim>50</dim>
					<dim>84</dim>
				</port>
			</output>
			<blobs>
				<weights offset="50420812" size="4194304"/>
				<biases offset="54615116" size="4096"/>
			</blobs>
		</layer>
		<layer id="92" name="855" precision="FP32" type="ReLU">
			<input>
				<port id="0">
					<dim>1</dim>
					<dim>1024</dim>
					<dim>50</dim>
					<dim>84</dim>
				</port>
			</input>
			<output>
				<port id="1">
					<dim>1</dim>
					<dim>1024</dim>
					<dim>50</dim>
					<dim>84</dim>
				</port>
			</output>
		</layer>
		<layer id="93" name="856" precision="FP32" type="Convolution">
			<data dilations="1,1" group="32" kernel="3,3" output="1024" pads_begin="1,1" pads_end="1,1" strides="1,1"/>
			<input>
				<port id="0">
					<dim>1</dim>
					<dim>1024</dim>
					<dim>50</dim>
					<dim>84</dim>
				</port>
			</input>
			<output>
				<port id="3">
					<dim>1</dim>
					<dim>1024</dim>
					<dim>50</dim>
					<dim>84</dim>
				</port>
			</output>
			<blobs>
				<weights offset="54619212" size="1179648"/>
				<biases offset="55798860" size="4096"/>
			</blobs>
		</layer>
		<layer id="94" name="858" precision="FP32" type="ReLU">
			<input>
				<port id="0">
					<dim>1</dim>
					<dim>1024</dim>
					<dim>50</dim>
					<dim>84</dim>
				</port>
			</input>
			<output>
				<port id="1">
					<dim>1</dim>
					<dim>1024</dim>
					<dim>50</dim>
					<dim>84</dim>
				</port>
			</output>
		</layer>
		<layer id="95" name="859" precision="FP32" type="Convolution">
			<data dilations="1,1" group="1" kernel="1,1" output="1024" pads_begin="0,0" pads_end="0,0" strides="1,1"/>
			<input>
				<port id="0">
					<dim>1</dim>
					<dim>1024</dim>
					<dim>50</dim>
					<dim>84</dim>
				</port>
			</input>
			<output>
				<port id="3">
					<dim>1</dim>
					<dim>1024</dim>
					<dim>50</dim>
					<dim>84</dim>
				</port>
			</output>
			<blobs>
				<weights offset="55802956" size="4194304"/>
				<biases offset="59997260" size="4096"/>
			</blobs>
		</layer>
		<layer id="96" name="861" precision="FP32" type="Eltwise">
			<data operation="sum"/>
			<input>
				<port id="0">
					<dim>1</dim>
					<dim>1024</dim>
					<dim>50</dim>
					<dim>84</dim>
				</port>
				<port id="1">
					<dim>1</dim>
					<dim>1024</dim>
					<dim>50</dim>
					<dim>84</dim>
				</port>
			</input>
			<output>
				<port id="2">
					<dim>1</dim>
					<dim>1024</dim>
					<dim>50</dim>
					<dim>84</dim>
				</port>
			</output>
		</layer>
		<layer id="97" name="862" precision="FP32" type="ReLU">
			<input>
				<port id="0">
					<dim>1</dim>
					<dim>1024</dim>
					<dim>50</dim>
					<dim>84</dim>
				</port>
			</input>
			<output>
				<port id="1">
					<dim>1</dim>
					<dim>1024</dim>
					<dim>50</dim>
					<dim>84</dim>
				</port>
			</output>
		</layer>
		<layer id="98" name="863" precision="FP32" type="Convolution">
			<data dilations="1,1" group="1" kernel="1,1" output="1024" pads_begin="0,0" pads_end="0,0" strides="1,1"/>
			<input>
				<port id="0">
					<dim>1</dim>
					<dim>1024</dim>
					<dim>50</dim>
					<dim>84</dim>
				</port>
			</input>
			<output>
				<port id="3">
					<dim>1</dim>
					<dim>1024</dim>
					<dim>50</dim>
					<dim>84</dim>
				</port>
			</output>
			<blobs>
				<weights offset="60001356" size="4194304"/>
				<biases offset="64195660" size="4096"/>
			</blobs>
		</layer>
		<layer id="99" name="865" precision="FP32" type="ReLU">
			<input>
				<port id="0">
					<dim>1</dim>
					<dim>1024</dim>
					<dim>50</dim>
					<dim>84</dim>
				</port>
			</input>
			<output>
				<port id="1">
					<dim>1</dim>
					<dim>1024</dim>
					<dim>50</dim>
					<dim>84</dim>
				</port>
			</output>
		</layer>
		<layer id="100" name="866" precision="FP32" type="Convolution">
			<data dilations="1,1" group="32" kernel="3,3" output="1024" pads_begin="1,1" pads_end="1,1" strides="1,1"/>
			<input>
				<port id="0">
					<dim>1</dim>
					<dim>1024</dim>
					<dim>50</dim>
					<dim>84</dim>
				</port>
			</input>
			<output>
				<port id="3">
					<dim>1</dim>
					<dim>1024</dim>
					<dim>50</dim>
					<dim>84</dim>
				</port>
			</output>
			<blobs>
				<weights offset="64199756" size="1179648"/>
				<biases offset="65379404" size="4096"/>
			</blobs>
		</layer>
		<layer id="101" name="868" precision="FP32" type="ReLU">
			<input>
				<port id="0">
					<dim>1</dim>
					<dim>1024</dim>
					<dim>50</dim>
					<dim>84</dim>
				</port>
			</input>
			<output>
				<port id="1">
					<dim>1</dim>
					<dim>1024</dim>
					<dim>50</dim>
					<dim>84</dim>
				</port>
			</output>
		</layer>
		<layer id="102" name="869" precision="FP32" type="Convolution">
			<data dilations="1,1" group="1" kernel="1,1" output="1024" pads_begin="0,0" pads_end="0,0" strides="1,1"/>
			<input>
				<port id="0">
					<dim>1</dim>
					<dim>1024</dim>
					<dim>50</dim>
					<dim>84</dim>
				</port>
			</input>
			<output>
				<port id="3">
					<dim>1</dim>
					<dim>1024</dim>
					<dim>50</dim>
					<dim>84</dim>
				</port>
			</output>
			<blobs>
				<weights offset="65383500" size="4194304"/>
				<biases offset="69577804" size="4096"/>
			</blobs>
		</layer>
		<layer id="103" name="871" precision="FP32" type="Eltwise">
			<data operation="sum"/>
			<input>
				<port id="0">
					<dim>1</dim>
					<dim>1024</dim>
					<dim>50</dim>
					<dim>84</dim>
				</port>
				<port id="1">
					<dim>1</dim>
					<dim>1024</dim>
					<dim>50</dim>
					<dim>84</dim>
				</port>
			</input>
			<output>
				<port id="2">
					<dim>1</dim>
					<dim>1024</dim>
					<dim>50</dim>
					<dim>84</dim>
				</port>
			</output>
		</layer>
		<layer id="104" name="872" precision="FP32" type="ReLU">
			<input>
				<port id="0">
					<dim>1</dim>
					<dim>1024</dim>
					<dim>50</dim>
					<dim>84</dim>
				</port>
			</input>
			<output>
				<port id="1">
					<dim>1</dim>
					<dim>1024</dim>
					<dim>50</dim>
					<dim>84</dim>
				</port>
			</output>
		</layer>
		<layer id="105" name="873" precision="FP32" type="Convolution">
			<data dilations="1,1" group="1" kernel="1,1" output="1024" pads_begin="0,0" pads_end="0,0" strides="1,1"/>
			<input>
				<port id="0">
					<dim>1</dim>
					<dim>1024</dim>
					<dim>50</dim>
					<dim>84</dim>
				</port>
			</input>
			<output>
				<port id="3">
					<dim>1</dim>
					<dim>1024</dim>
					<dim>50</dim>
					<dim>84</dim>
				</port>
			</output>
			<blobs>
				<weights offset="69581900" size="4194304"/>
				<biases offset="73776204" size="4096"/>
			</blobs>
		</layer>
		<layer id="106" name="875" precision="FP32" type="ReLU">
			<input>
				<port id="0">
					<dim>1</dim>
					<dim>1024</dim>
					<dim>50</dim>
					<dim>84</dim>
				</port>
			</input>
			<output>
				<port id="1">
					<dim>1</dim>
					<dim>1024</dim>
					<dim>50</dim>
					<dim>84</dim>
				</port>
			</output>
		</layer>
		<layer id="107" name="876" precision="FP32" type="Convolution">
			<data dilations="1,1" group="32" kernel="3,3" output="1024" pads_begin="1,1" pads_end="1,1" strides="1,1"/>
			<input>
				<port id="0">
					<dim>1</dim>
					<dim>1024</dim>
					<dim>50</dim>
					<dim>84</dim>
				</port>
			</input>
			<output>
				<port id="3">
					<dim>1</dim>
					<dim>1024</dim>
					<dim>50</dim>
					<dim>84</dim>
				</port>
			</output>
			<blobs>
				<weights offset="73780300" size="1179648"/>
				<biases offset="74959948" size="4096"/>
			</blobs>
		</layer>
		<layer id="108" name="878" precision="FP32" type="ReLU">
			<input>
				<port id="0">
					<dim>1</dim>
					<dim>1024</dim>
					<dim>50</dim>
					<dim>84</dim>
				</port>
			</input>
			<output>
				<port id="1">
					<dim>1</dim>
					<dim>1024</dim>
					<dim>50</dim>
					<dim>84</dim>
				</port>
			</output>
		</layer>
		<layer id="109" name="879" precision="FP32" type="Convolution">
			<data dilations="1,1" group="1" kernel="1,1" output="1024" pads_begin="0,0" pads_end="0,0" strides="1,1"/>
			<input>
				<port id="0">
					<dim>1</dim>
					<dim>1024</dim>
					<dim>50</dim>
					<dim>84</dim>
				</port>
			</input>
			<output>
				<port id="3">
					<dim>1</dim>
					<dim>1024</dim>
					<dim>50</dim>
					<dim>84</dim>
				</port>
			</output>
			<blobs>
				<weights offset="74964044" size="4194304"/>
				<biases offset="79158348" size="4096"/>
			</blobs>
		</layer>
		<layer id="110" name="881" precision="FP32" type="Eltwise">
			<data operation="sum"/>
			<input>
				<port id="0">
					<dim>1</dim>
					<dim>1024</dim>
					<dim>50</dim>
					<dim>84</dim>
				</port>
				<port id="1">
					<dim>1</dim>
					<dim>1024</dim>
					<dim>50</dim>
					<dim>84</dim>
				</port>
			</input>
			<output>
				<port id="2">
					<dim>1</dim>
					<dim>1024</dim>
					<dim>50</dim>
					<dim>84</dim>
				</port>
			</output>
		</layer>
		<layer id="111" name="882" precision="FP32" type="ReLU">
			<input>
				<port id="0">
					<dim>1</dim>
					<dim>1024</dim>
					<dim>50</dim>
					<dim>84</dim>
				</port>
			</input>
			<output>
				<port id="1">
					<dim>1</dim>
					<dim>1024</dim>
					<dim>50</dim>
					<dim>84</dim>
				</port>
			</output>
		</layer>
		<layer id="112" name="883" precision="FP32" type="Convolution">
			<data dilations="1,1" group="1" kernel="1,1" output="1024" pads_begin="0,0" pads_end="0,0" strides="1,1"/>
			<input>
				<port id="0">
					<dim>1</dim>
					<dim>1024</dim>
					<dim>50</dim>
					<dim>84</dim>
				</port>
			</input>
			<output>
				<port id="3">
					<dim>1</dim>
					<dim>1024</dim>
					<dim>50</dim>
					<dim>84</dim>
				</port>
			</output>
			<blobs>
				<weights offset="79162444" size="4194304"/>
				<biases offset="83356748" size="4096"/>
			</blobs>
		</layer>
		<layer id="113" name="885" precision="FP32" type="ReLU">
			<input>
				<port id="0">
					<dim>1</dim>
					<dim>1024</dim>
					<dim>50</dim>
					<dim>84</dim>
				</port>
			</input>
			<output>
				<port id="1">
					<dim>1</dim>
					<dim>1024</dim>
					<dim>50</dim>
					<dim>84</dim>
				</port>
			</output>
		</layer>
		<layer id="114" name="886" precision="FP32" type="Convolution">
			<data dilations="1,1" group="32" kernel="3,3" output="1024" pads_begin="1,1" pads_end="1,1" strides="1,1"/>
			<input>
				<port id="0">
					<dim>1</dim>
					<dim>1024</dim>
					<dim>50</dim>
					<dim>84</dim>
				</port>
			</input>
			<output>
				<port id="3">
					<dim>1</dim>
					<dim>1024</dim>
					<dim>50</dim>
					<dim>84</dim>
				</port>
			</output>
			<blobs>
				<weights offset="83360844" size="1179648"/>
				<biases offset="84540492" size="4096"/>
			</blobs>
		</layer>
		<layer id="115" name="888" precision="FP32" type="ReLU">
			<input>
				<port id="0">
					<dim>1</dim>
					<dim>1024</dim>
					<dim>50</dim>
					<dim>84</dim>
				</port>
			</input>
			<output>
				<port id="1">
					<dim>1</dim>
					<dim>1024</dim>
					<dim>50</dim>
					<dim>84</dim>
				</port>
			</output>
		</layer>
		<layer id="116" name="889" precision="FP32" type="Convolution">
			<data dilations="1,1" group="1" kernel="1,1" output="1024" pads_begin="0,0" pads_end="0,0" strides="1,1"/>
			<input>
				<port id="0">
					<dim>1</dim>
					<dim>1024</dim>
					<dim>50</dim>
					<dim>84</dim>
				</port>
			</input>
			<output>
				<port id="3">
					<dim>1</dim>
					<dim>1024</dim>
					<dim>50</dim>
					<dim>84</dim>
				</port>
			</output>
			<blobs>
				<weights offset="84544588" size="4194304"/>
				<biases offset="88738892" size="4096"/>
			</blobs>
		</layer>
		<layer id="117" name="891" precision="FP32" type="Eltwise">
			<data operation="sum"/>
			<input>
				<port id="0">
					<dim>1</dim>
					<dim>1024</dim>
					<dim>50</dim>
					<dim>84</dim>
				</port>
				<port id="1">
					<dim>1</dim>
					<dim>1024</dim>
					<dim>50</dim>
					<dim>84</dim>
				</port>
			</input>
			<output>
				<port id="2">
					<dim>1</dim>
					<dim>1024</dim>
					<dim>50</dim>
					<dim>84</dim>
				</port>
			</output>
		</layer>
		<layer id="118" name="892" precision="FP32" type="ReLU">
			<input>
				<port id="0">
					<dim>1</dim>
					<dim>1024</dim>
					<dim>50</dim>
					<dim>84</dim>
				</port>
			</input>
			<output>
				<port id="1">
					<dim>1</dim>
					<dim>1024</dim>
					<dim>50</dim>
					<dim>84</dim>
				</port>
			</output>
		</layer>
		<layer id="119" name="893" precision="FP32" type="Convolution">
			<data dilations="1,1" group="1" kernel="1,1" output="1024" pads_begin="0,0" pads_end="0,0" strides="1,1"/>
			<input>
				<port id="0">
					<dim>1</dim>
					<dim>1024</dim>
					<dim>50</dim>
					<dim>84</dim>
				</port>
			</input>
			<output>
				<port id="3">
					<dim>1</dim>
					<dim>1024</dim>
					<dim>50</dim>
					<dim>84</dim>
				</port>
			</output>
			<blobs>
				<weights offset="88742988" size="4194304"/>
				<biases offset="92937292" size="4096"/>
			</blobs>
		</layer>
		<layer id="120" name="895" precision="FP32" type="ReLU">
			<input>
				<port id="0">
					<dim>1</dim>
					<dim>1024</dim>
					<dim>50</dim>
					<dim>84</dim>
				</port>
			</input>
			<output>
				<port id="1">
					<dim>1</dim>
					<dim>1024</dim>
					<dim>50</dim>
					<dim>84</dim>
				</port>
			</output>
		</layer>
		<layer id="121" name="896" precision="FP32" type="Convolution">
			<data dilations="1,1" group="32" kernel="3,3" output="1024" pads_begin="1,1" pads_end="1,1" strides="1,1"/>
			<input>
				<port id="0">
					<dim>1</dim>
					<dim>1024</dim>
					<dim>50</dim>
					<dim>84</dim>
				</port>
			</input>
			<output>
				<port id="3">
					<dim>1</dim>
					<dim>1024</dim>
					<dim>50</dim>
					<dim>84</dim>
				</port>
			</output>
			<blobs>
				<weights offset="92941388" size="1179648"/>
				<biases offset="94121036" size="4096"/>
			</blobs>
		</layer>
		<layer id="122" name="898" precision="FP32" type="ReLU">
			<input>
				<port id="0">
					<dim>1</dim>
					<dim>1024</dim>
					<dim>50</dim>
					<dim>84</dim>
				</port>
			</input>
			<output>
				<port id="1">
					<dim>1</dim>
					<dim>1024</dim>
					<dim>50</dim>
					<dim>84</dim>
				</port>
			</output>
		</layer>
		<layer id="123" name="899" precision="FP32" type="Convolution">
			<data dilations="1,1" group="1" kernel="1,1" output="1024" pads_begin="0,0" pads_end="0,0" strides="1,1"/>
			<input>
				<port id="0">
					<dim>1</dim>
					<dim>1024</dim>
					<dim>50</dim>
					<dim>84</dim>
				</port>
			</input>
			<output>
				<port id="3">
					<dim>1</dim>
					<dim>1024</dim>
					<dim>50</dim>
					<dim>84</dim>
				</port>
			</output>
			<blobs>
				<weights offset="94125132" size="4194304"/>
				<biases offset="98319436" size="4096"/>
			</blobs>
		</layer>
		<layer id="124" name="901" precision="FP32" type="Eltwise">
			<data operation="sum"/>
			<input>
				<port id="0">
					<dim>1</dim>
					<dim>1024</dim>
					<dim>50</dim>
					<dim>84</dim>
				</port>
				<port id="1">
					<dim>1</dim>
					<dim>1024</dim>
					<dim>50</dim>
					<dim>84</dim>
				</port>
			</input>
			<output>
				<port id="2">
					<dim>1</dim>
					<dim>1024</dim>
					<dim>50</dim>
					<dim>84</dim>
				</port>
			</output>
		</layer>
		<layer id="125" name="902" precision="FP32" type="ReLU">
			<input>
				<port id="0">
					<dim>1</dim>
					<dim>1024</dim>
					<dim>50</dim>
					<dim>84</dim>
				</port>
			</input>
			<output>
				<port id="1">
					<dim>1</dim>
					<dim>1024</dim>
					<dim>50</dim>
					<dim>84</dim>
				</port>
			</output>
		</layer>
		<layer id="126" name="903" precision="FP32" type="Convolution">
			<data dilations="1,1" group="1" kernel="1,1" output="1024" pads_begin="0,0" pads_end="0,0" strides="1,1"/>
			<input>
				<port id="0">
					<dim>1</dim>
					<dim>1024</dim>
					<dim>50</dim>
					<dim>84</dim>
				</port>
			</input>
			<output>
				<port id="3">
					<dim>1</dim>
					<dim>1024</dim>
					<dim>50</dim>
					<dim>84</dim>
				</port>
			</output>
			<blobs>
				<weights offset="98323532" size="4194304"/>
				<biases offset="102517836" size="4096"/>
			</blobs>
		</layer>
		<layer id="127" name="905" precision="FP32" type="ReLU">
			<input>
				<port id="0">
					<dim>1</dim>
					<dim>1024</dim>
					<dim>50</dim>
					<dim>84</dim>
				</port>
			</input>
			<output>
				<port id="1">
					<dim>1</dim>
					<dim>1024</dim>
					<dim>50</dim>
					<dim>84</dim>
				</port>
			</output>
		</layer>
		<layer id="128" name="906" precision="FP32" type="Convolution">
			<data dilations="1,1" group="32" kernel="3,3" output="1024" pads_begin="1,1" pads_end="1,1" strides="1,1"/>
			<input>
				<port id="0">
					<dim>1</dim>
					<dim>1024</dim>
					<dim>50</dim>
					<dim>84</dim>
				</port>
			</input>
			<output>
				<port id="3">
					<dim>1</dim>
					<dim>1024</dim>
					<dim>50</dim>
					<dim>84</dim>
				</port>
			</output>
			<blobs>
				<weights offset="102521932" size="1179648"/>
				<biases offset="103701580" size="4096"/>
			</blobs>
		</layer>
		<layer id="129" name="908" precision="FP32" type="ReLU">
			<input>
				<port id="0">
					<dim>1</dim>
					<dim>1024</dim>
					<dim>50</dim>
					<dim>84</dim>
				</port>
			</input>
			<output>
				<port id="1">
					<dim>1</dim>
					<dim>1024</dim>
					<dim>50</dim>
					<dim>84</dim>
				</port>
			</output>
		</layer>
		<layer id="130" name="909" precision="FP32" type="Convolution">
			<data dilations="1,1" group="1" kernel="1,1" output="1024" pads_begin="0,0" pads_end="0,0" strides="1,1"/>
			<input>
				<port id="0">
					<dim>1</dim>
					<dim>1024</dim>
					<dim>50</dim>
					<dim>84</dim>
				</port>
			</input>
			<output>
				<port id="3">
					<dim>1</dim>
					<dim>1024</dim>
					<dim>50</dim>
					<dim>84</dim>
				</port>
			</output>
			<blobs>
				<weights offset="103705676" size="4194304"/>
				<biases offset="107899980" size="4096"/>
			</blobs>
		</layer>
		<layer id="131" name="911" precision="FP32" type="Eltwise">
			<data operation="sum"/>
			<input>
				<port id="0">
					<dim>1</dim>
					<dim>1024</dim>
					<dim>50</dim>
					<dim>84</dim>
				</port>
				<port id="1">
					<dim>1</dim>
					<dim>1024</dim>
					<dim>50</dim>
					<dim>84</dim>
				</port>
			</input>
			<output>
				<port id="2">
					<dim>1</dim>
					<dim>1024</dim>
					<dim>50</dim>
					<dim>84</dim>
				</port>
			</output>
		</layer>
		<layer id="132" name="912" precision="FP32" type="ReLU">
			<input>
				<port id="0">
					<dim>1</dim>
					<dim>1024</dim>
					<dim>50</dim>
					<dim>84</dim>
				</port>
			</input>
			<output>
				<port id="1">
					<dim>1</dim>
					<dim>1024</dim>
					<dim>50</dim>
					<dim>84</dim>
				</port>
			</output>
		</layer>
		<layer id="133" name="913" precision="FP32" type="Convolution">
			<data dilations="1,1" group="1" kernel="1,1" output="1024" pads_begin="0,0" pads_end="0,0" strides="1,1"/>
			<input>
				<port id="0">
					<dim>1</dim>
					<dim>1024</dim>
					<dim>50</dim>
					<dim>84</dim>
				</port>
			</input>
			<output>
				<port id="3">
					<dim>1</dim>
					<dim>1024</dim>
					<dim>50</dim>
					<dim>84</dim>
				</port>
			</output>
			<blobs>
				<weights offset="107904076" size="4194304"/>
				<biases offset="112098380" size="4096"/>
			</blobs>
		</layer>
		<layer id="134" name="915" precision="FP32" type="ReLU">
			<input>
				<port id="0">
					<dim>1</dim>
					<dim>1024</dim>
					<dim>50</dim>
					<dim>84</dim>
				</port>
			</input>
			<output>
				<port id="1">
					<dim>1</dim>
					<dim>1024</dim>
					<dim>50</dim>
					<dim>84</dim>
				</port>
			</output>
		</layer>
		<layer id="135" name="916" precision="FP32" type="Convolution">
			<data dilations="1,1" group="32" kernel="3,3" output="1024" pads_begin="1,1" pads_end="1,1" strides="1,1"/>
			<input>
				<port id="0">
					<dim>1</dim>
					<dim>1024</dim>
					<dim>50</dim>
					<dim>84</dim>
				</port>
			</input>
			<output>
				<port id="3">
					<dim>1</dim>
					<dim>1024</dim>
					<dim>50</dim>
					<dim>84</dim>
				</port>
			</output>
			<blobs>
				<weights offset="112102476" size="1179648"/>
				<biases offset="113282124" size="4096"/>
			</blobs>
		</layer>
		<layer id="136" name="918" precision="FP32" type="ReLU">
			<input>
				<port id="0">
					<dim>1</dim>
					<dim>1024</dim>
					<dim>50</dim>
					<dim>84</dim>
				</port>
			</input>
			<output>
				<port id="1">
					<dim>1</dim>
					<dim>1024</dim>
					<dim>50</dim>
					<dim>84</dim>
				</port>
			</output>
		</layer>
		<layer id="137" name="919" precision="FP32" type="Convolution">
			<data dilations="1,1" group="1" kernel="1,1" output="1024" pads_begin="0,0" pads_end="0,0" strides="1,1"/>
			<input>
				<port id="0">
					<dim>1</dim>
					<dim>1024</dim>
					<dim>50</dim>
					<dim>84</dim>
				</port>
			</input>
			<output>
				<port id="3">
					<dim>1</dim>
					<dim>1024</dim>
					<dim>50</dim>
					<dim>84</dim>
				</port>
			</output>
			<blobs>
				<weights offset="113286220" size="4194304"/>
				<biases offset="117480524" size="4096"/>
			</blobs>
		</layer>
		<layer id="138" name="921" precision="FP32" type="Eltwise">
			<data operation="sum"/>
			<input>
				<port id="0">
					<dim>1</dim>
					<dim>1024</dim>
					<dim>50</dim>
					<dim>84</dim>
				</port>
				<port id="1">
					<dim>1</dim>
					<dim>1024</dim>
					<dim>50</dim>
					<dim>84</dim>
				</port>
			</input>
			<output>
				<port id="2">
					<dim>1</dim>
					<dim>1024</dim>
					<dim>50</dim>
					<dim>84</dim>
				</port>
			</output>
		</layer>
		<layer id="139" name="922" precision="FP32" type="ReLU">
			<input>
				<port id="0">
					<dim>1</dim>
					<dim>1024</dim>
					<dim>50</dim>
					<dim>84</dim>
				</port>
			</input>
			<output>
				<port id="1">
					<dim>1</dim>
					<dim>1024</dim>
					<dim>50</dim>
					<dim>84</dim>
				</port>
			</output>
		</layer>
		<layer id="140" name="923" precision="FP32" type="Convolution">
			<data dilations="1,1" group="1" kernel="1,1" output="1024" pads_begin="0,0" pads_end="0,0" strides="1,1"/>
			<input>
				<port id="0">
					<dim>1</dim>
					<dim>1024</dim>
					<dim>50</dim>
					<dim>84</dim>
				</port>
			</input>
			<output>
				<port id="3">
					<dim>1</dim>
					<dim>1024</dim>
					<dim>50</dim>
					<dim>84</dim>
				</port>
			</output>
			<blobs>
				<weights offset="117484620" size="4194304"/>
				<biases offset="121678924" size="4096"/>
			</blobs>
		</layer>
		<layer id="141" name="925" precision="FP32" type="ReLU">
			<input>
				<port id="0">
					<dim>1</dim>
					<dim>1024</dim>
					<dim>50</dim>
					<dim>84</dim>
				</port>
			</input>
			<output>
				<port id="1">
					<dim>1</dim>
					<dim>1024</dim>
					<dim>50</dim>
					<dim>84</dim>
				</port>
			</output>
		</layer>
		<layer id="142" name="926" precision="FP32" type="Convolution">
			<data dilations="1,1" group="32" kernel="3,3" output="1024" pads_begin="1,1" pads_end="1,1" strides="1,1"/>
			<input>
				<port id="0">
					<dim>1</dim>
					<dim>1024</dim>
					<dim>50</dim>
					<dim>84</dim>
				</port>
			</input>
			<output>
				<port id="3">
					<dim>1</dim>
					<dim>1024</dim>
					<dim>50</dim>
					<dim>84</dim>
				</port>
			</output>
			<blobs>
				<weights offset="121683020" size="1179648"/>
				<biases offset="122862668" size="4096"/>
			</blobs>
		</layer>
		<layer id="143" name="928" precision="FP32" type="ReLU">
			<input>
				<port id="0">
					<dim>1</dim>
					<dim>1024</dim>
					<dim>50</dim>
					<dim>84</dim>
				</port>
			</input>
			<output>
				<port id="1">
					<dim>1</dim>
					<dim>1024</dim>
					<dim>50</dim>
					<dim>84</dim>
				</port>
			</output>
		</layer>
		<layer id="144" name="929" precision="FP32" type="Convolution">
			<data dilations="1,1" group="1" kernel="1,1" output="1024" pads_begin="0,0" pads_end="0,0" strides="1,1"/>
			<input>
				<port id="0">
					<dim>1</dim>
					<dim>1024</dim>
					<dim>50</dim>
					<dim>84</dim>
				</port>
			</input>
			<output>
				<port id="3">
					<dim>1</dim>
					<dim>1024</dim>
					<dim>50</dim>
					<dim>84</dim>
				</port>
			</output>
			<blobs>
				<weights offset="122866764" size="4194304"/>
				<biases offset="127061068" size="4096"/>
			</blobs>
		</layer>
		<layer id="145" name="931" precision="FP32" type="Eltwise">
			<data operation="sum"/>
			<input>
				<port id="0">
					<dim>1</dim>
					<dim>1024</dim>
					<dim>50</dim>
					<dim>84</dim>
				</port>
				<port id="1">
					<dim>1</dim>
					<dim>1024</dim>
					<dim>50</dim>
					<dim>84</dim>
				</port>
			</input>
			<output>
				<port id="2">
					<dim>1</dim>
					<dim>1024</dim>
					<dim>50</dim>
					<dim>84</dim>
				</port>
			</output>
		</layer>
		<layer id="146" name="932" precision="FP32" type="ReLU">
			<input>
				<port id="0">
					<dim>1</dim>
					<dim>1024</dim>
					<dim>50</dim>
					<dim>84</dim>
				</port>
			</input>
			<output>
				<port id="1">
					<dim>1</dim>
					<dim>1024</dim>
					<dim>50</dim>
					<dim>84</dim>
				</port>
			</output>
		</layer>
		<layer id="147" name="933" precision="FP32" type="Convolution">
			<data dilations="1,1" group="1" kernel="1,1" output="1024" pads_begin="0,0" pads_end="0,0" strides="1,1"/>
			<input>
				<port id="0">
					<dim>1</dim>
					<dim>1024</dim>
					<dim>50</dim>
					<dim>84</dim>
				</port>
			</input>
			<output>
				<port id="3">
					<dim>1</dim>
					<dim>1024</dim>
					<dim>50</dim>
					<dim>84</dim>
				</port>
			</output>
			<blobs>
				<weights offset="127065164" size="4194304"/>
				<biases offset="131259468" size="4096"/>
			</blobs>
		</layer>
		<layer id="148" name="935" precision="FP32" type="ReLU">
			<input>
				<port id="0">
					<dim>1</dim>
					<dim>1024</dim>
					<dim>50</dim>
					<dim>84</dim>
				</port>
			</input>
			<output>
				<port id="1">
					<dim>1</dim>
					<dim>1024</dim>
					<dim>50</dim>
					<dim>84</dim>
				</port>
			</output>
		</layer>
		<layer id="149" name="936" precision="FP32" type="Convolution">
			<data dilations="1,1" group="32" kernel="3,3" output="1024" pads_begin="1,1" pads_end="1,1" strides="1,1"/>
			<input>
				<port id="0">
					<dim>1</dim>
					<dim>1024</dim>
					<dim>50</dim>
					<dim>84</dim>
				</port>
			</input>
			<output>
				<port id="3">
					<dim>1</dim>
					<dim>1024</dim>
					<dim>50</dim>
					<dim>84</dim>
				</port>
			</output>
			<blobs>
				<weights offset="131263564" size="1179648"/>
				<biases offset="132443212" size="4096"/>
			</blobs>
		</layer>
		<layer id="150" name="938" precision="FP32" type="ReLU">
			<input>
				<port id="0">
					<dim>1</dim>
					<dim>1024</dim>
					<dim>50</dim>
					<dim>84</dim>
				</port>
			</input>
			<output>
				<port id="1">
					<dim>1</dim>
					<dim>1024</dim>
					<dim>50</dim>
					<dim>84</dim>
				</port>
			</output>
		</layer>
		<layer id="151" name="939" precision="FP32" type="Convolution">
			<data dilations="1,1" group="1" kernel="1,1" output="1024" pads_begin="0,0" pads_end="0,0" strides="1,1"/>
			<input>
				<port id="0">
					<dim>1</dim>
					<dim>1024</dim>
					<dim>50</dim>
					<dim>84</dim>
				</port>
			</input>
			<output>
				<port id="3">
					<dim>1</dim>
					<dim>1024</dim>
					<dim>50</dim>
					<dim>84</dim>
				</port>
			</output>
			<blobs>
				<weights offset="132447308" size="4194304"/>
				<biases offset="136641612" size="4096"/>
			</blobs>
		</layer>
		<layer id="152" name="941" precision="FP32" type="Eltwise">
			<data operation="sum"/>
			<input>
				<port id="0">
					<dim>1</dim>
					<dim>1024</dim>
					<dim>50</dim>
					<dim>84</dim>
				</port>
				<port id="1">
					<dim>1</dim>
					<dim>1024</dim>
					<dim>50</dim>
					<dim>84</dim>
				</port>
			</input>
			<output>
				<port id="2">
					<dim>1</dim>
					<dim>1024</dim>
					<dim>50</dim>
					<dim>84</dim>
				</port>
			</output>
		</layer>
		<layer id="153" name="942" precision="FP32" type="ReLU">
			<input>
				<port id="0">
					<dim>1</dim>
					<dim>1024</dim>
					<dim>50</dim>
					<dim>84</dim>
				</port>
			</input>
			<output>
				<port id="1">
					<dim>1</dim>
					<dim>1024</dim>
					<dim>50</dim>
					<dim>84</dim>
				</port>
			</output>
		</layer>
		<layer id="154" name="943" precision="FP32" type="Convolution">
			<data dilations="1,1" group="1" kernel="1,1" output="1024" pads_begin="0,0" pads_end="0,0" strides="1,1"/>
			<input>
				<port id="0">
					<dim>1</dim>
					<dim>1024</dim>
					<dim>50</dim>
					<dim>84</dim>
				</port>
			</input>
			<output>
				<port id="3">
					<dim>1</dim>
					<dim>1024</dim>
					<dim>50</dim>
					<dim>84</dim>
				</port>
			</output>
			<blobs>
				<weights offset="136645708" size="4194304"/>
				<biases offset="140840012" size="4096"/>
			</blobs>
		</layer>
		<layer id="155" name="945" precision="FP32" type="ReLU">
			<input>
				<port id="0">
					<dim>1</dim>
					<dim>1024</dim>
					<dim>50</dim>
					<dim>84</dim>
				</port>
			</input>
			<output>
				<port id="1">
					<dim>1</dim>
					<dim>1024</dim>
					<dim>50</dim>
					<dim>84</dim>
				</port>
			</output>
		</layer>
		<layer id="156" name="946" precision="FP32" type="Convolution">
			<data dilations="1,1" group="32" kernel="3,3" output="1024" pads_begin="1,1" pads_end="1,1" strides="1,1"/>
			<input>
				<port id="0">
					<dim>1</dim>
					<dim>1024</dim>
					<dim>50</dim>
					<dim>84</dim>
				</port>
			</input>
			<output>
				<port id="3">
					<dim>1</dim>
					<dim>1024</dim>
					<dim>50</dim>
					<dim>84</dim>
				</port>
			</output>
			<blobs>
				<weights offset="140844108" size="1179648"/>
				<biases offset="142023756" size="4096"/>
			</blobs>
		</layer>
		<layer id="157" name="948" precision="FP32" type="ReLU">
			<input>
				<port id="0">
					<dim>1</dim>
					<dim>1024</dim>
					<dim>50</dim>
					<dim>84</dim>
				</port>
			</input>
			<output>
				<port id="1">
					<dim>1</dim>
					<dim>1024</dim>
					<dim>50</dim>
					<dim>84</dim>
				</port>
			</output>
		</layer>
		<layer id="158" name="949" precision="FP32" type="Convolution">
			<data dilations="1,1" group="1" kernel="1,1" output="1024" pads_begin="0,0" pads_end="0,0" strides="1,1"/>
			<input>
				<port id="0">
					<dim>1</dim>
					<dim>1024</dim>
					<dim>50</dim>
					<dim>84</dim>
				</port>
			</input>
			<output>
				<port id="3">
					<dim>1</dim>
					<dim>1024</dim>
					<dim>50</dim>
					<dim>84</dim>
				</port>
			</output>
			<blobs>
				<weights offset="142027852" size="4194304"/>
				<biases offset="146222156" size="4096"/>
			</blobs>
		</layer>
		<layer id="159" name="951" precision="FP32" type="Eltwise">
			<data operation="sum"/>
			<input>
				<port id="0">
					<dim>1</dim>
					<dim>1024</dim>
					<dim>50</dim>
					<dim>84</dim>
				</port>
				<port id="1">
					<dim>1</dim>
					<dim>1024</dim>
					<dim>50</dim>
					<dim>84</dim>
				</port>
			</input>
			<output>
				<port id="2">
					<dim>1</dim>
					<dim>1024</dim>
					<dim>50</dim>
					<dim>84</dim>
				</port>
			</output>
		</layer>
		<layer id="160" name="952" precision="FP32" type="ReLU">
			<input>
				<port id="0">
					<dim>1</dim>
					<dim>1024</dim>
					<dim>50</dim>
					<dim>84</dim>
				</port>
			</input>
			<output>
				<port id="1">
					<dim>1</dim>
					<dim>1024</dim>
					<dim>50</dim>
					<dim>84</dim>
				</port>
			</output>
		</layer>
		<layer id="161" name="953" precision="FP32" type="Convolution">
			<data dilations="1,1" group="1" kernel="1,1" output="1024" pads_begin="0,0" pads_end="0,0" strides="1,1"/>
			<input>
				<port id="0">
					<dim>1</dim>
					<dim>1024</dim>
					<dim>50</dim>
					<dim>84</dim>
				</port>
			</input>
			<output>
				<port id="3">
					<dim>1</dim>
					<dim>1024</dim>
					<dim>50</dim>
					<dim>84</dim>
				</port>
			</output>
			<blobs>
				<weights offset="146226252" size="4194304"/>
				<biases offset="150420556" size="4096"/>
			</blobs>
		</layer>
		<layer id="162" name="955" precision="FP32" type="ReLU">
			<input>
				<port id="0">
					<dim>1</dim>
					<dim>1024</dim>
					<dim>50</dim>
					<dim>84</dim>
				</port>
			</input>
			<output>
				<port id="1">
					<dim>1</dim>
					<dim>1024</dim>
					<dim>50</dim>
					<dim>84</dim>
				</port>
			</output>
		</layer>
		<layer id="163" name="956" precision="FP32" type="Convolution">
			<data dilations="1,1" group="32" kernel="3,3" output="1024" pads_begin="1,1" pads_end="1,1" strides="1,1"/>
			<input>
				<port id="0">
					<dim>1</dim>
					<dim>1024</dim>
					<dim>50</dim>
					<dim>84</dim>
				</port>
			</input>
			<output>
				<port id="3">
					<dim>1</dim>
					<dim>1024</dim>
					<dim>50</dim>
					<dim>84</dim>
				</port>
			</output>
			<blobs>
				<weights offset="150424652" size="1179648"/>
				<biases offset="151604300" size="4096"/>
			</blobs>
		</layer>
		<layer id="164" name="958" precision="FP32" type="ReLU">
			<input>
				<port id="0">
					<dim>1</dim>
					<dim>1024</dim>
					<dim>50</dim>
					<dim>84</dim>
				</port>
			</input>
			<output>
				<port id="1">
					<dim>1</dim>
					<dim>1024</dim>
					<dim>50</dim>
					<dim>84</dim>
				</port>
			</output>
		</layer>
		<layer id="165" name="959" precision="FP32" type="Convolution">
			<data dilations="1,1" group="1" kernel="1,1" output="1024" pads_begin="0,0" pads_end="0,0" strides="1,1"/>
			<input>
				<port id="0">
					<dim>1</dim>
					<dim>1024</dim>
					<dim>50</dim>
					<dim>84</dim>
				</port>
			</input>
			<output>
				<port id="3">
					<dim>1</dim>
					<dim>1024</dim>
					<dim>50</dim>
					<dim>84</dim>
				</port>
			</output>
			<blobs>
				<weights offset="151608396" size="4194304"/>
				<biases offset="155802700" size="4096"/>
			</blobs>
		</layer>
		<layer id="166" name="961" precision="FP32" type="Eltwise">
			<data operation="sum"/>
			<input>
				<port id="0">
					<dim>1</dim>
					<dim>1024</dim>
					<dim>50</dim>
					<dim>84</dim>
				</port>
				<port id="1">
					<dim>1</dim>
					<dim>1024</dim>
					<dim>50</dim>
					<dim>84</dim>
				</port>
			</input>
			<output>
				<port id="2">
					<dim>1</dim>
					<dim>1024</dim>
					<dim>50</dim>
					<dim>84</dim>
				</port>
			</output>
		</layer>
		<layer id="167" name="962" precision="FP32" type="ReLU">
			<input>
				<port id="0">
					<dim>1</dim>
					<dim>1024</dim>
					<dim>50</dim>
					<dim>84</dim>
				</port>
			</input>
			<output>
				<port id="1">
					<dim>1</dim>
					<dim>1024</dim>
					<dim>50</dim>
					<dim>84</dim>
				</port>
			</output>
		</layer>
		<layer id="168" name="963" precision="FP32" type="Convolution">
			<data dilations="1,1" group="1" kernel="1,1" output="1024" pads_begin="0,0" pads_end="0,0" strides="1,1"/>
			<input>
				<port id="0">
					<dim>1</dim>
					<dim>1024</dim>
					<dim>50</dim>
					<dim>84</dim>
				</port>
			</input>
			<output>
				<port id="3">
					<dim>1</dim>
					<dim>1024</dim>
					<dim>50</dim>
					<dim>84</dim>
				</port>
			</output>
			<blobs>
				<weights offset="155806796" size="4194304"/>
				<biases offset="160001100" size="4096"/>
			</blobs>
		</layer>
		<layer id="169" name="965" precision="FP32" type="ReLU">
			<input>
				<port id="0">
					<dim>1</dim>
					<dim>1024</dim>
					<dim>50</dim>
					<dim>84</dim>
				</port>
			</input>
			<output>
				<port id="1">
					<dim>1</dim>
					<dim>1024</dim>
					<dim>50</dim>
					<dim>84</dim>
				</port>
			</output>
		</layer>
		<layer id="170" name="966" precision="FP32" type="Convolution">
			<data dilations="1,1" group="32" kernel="3,3" output="1024" pads_begin="1,1" pads_end="1,1" strides="1,1"/>
			<input>
				<port id="0">
					<dim>1</dim>
					<dim>1024</dim>
					<dim>50</dim>
					<dim>84</dim>
				</port>
			</input>
			<output>
				<port id="3">
					<dim>1</dim>
					<dim>1024</dim>
					<dim>50</dim>
					<dim>84</dim>
				</port>
			</output>
			<blobs>
				<weights offset="160005196" size="1179648"/>
				<biases offset="161184844" size="4096"/>
			</blobs>
		</layer>
		<layer id="171" name="968" precision="FP32" type="ReLU">
			<input>
				<port id="0">
					<dim>1</dim>
					<dim>1024</dim>
					<dim>50</dim>
					<dim>84</dim>
				</port>
			</input>
			<output>
				<port id="1">
					<dim>1</dim>
					<dim>1024</dim>
					<dim>50</dim>
					<dim>84</dim>
				</port>
			</output>
		</layer>
		<layer id="172" name="969" precision="FP32" type="Convolution">
			<data dilations="1,1" group="1" kernel="1,1" output="1024" pads_begin="0,0" pads_end="0,0" strides="1,1"/>
			<input>
				<port id="0">
					<dim>1</dim>
					<dim>1024</dim>
					<dim>50</dim>
					<dim>84</dim>
				</port>
			</input>
			<output>
				<port id="3">
					<dim>1</dim>
					<dim>1024</dim>
					<dim>50</dim>
					<dim>84</dim>
				</port>
			</output>
			<blobs>
				<weights offset="161188940" size="4194304"/>
				<biases offset="165383244" size="4096"/>
			</blobs>
		</layer>
		<layer id="173" name="971" precision="FP32" type="Eltwise">
			<data operation="sum"/>
			<input>
				<port id="0">
					<dim>1</dim>
					<dim>1024</dim>
					<dim>50</dim>
					<dim>84</dim>
				</port>
				<port id="1">
					<dim>1</dim>
					<dim>1024</dim>
					<dim>50</dim>
					<dim>84</dim>
				</port>
			</input>
			<output>
				<port id="2">
					<dim>1</dim>
					<dim>1024</dim>
					<dim>50</dim>
					<dim>84</dim>
				</port>
			</output>
		</layer>
		<layer id="174" name="972" precision="FP32" type="ReLU">
			<input>
				<port id="0">
					<dim>1</dim>
					<dim>1024</dim>
					<dim>50</dim>
					<dim>84</dim>
				</port>
			</input>
			<output>
				<port id="1">
					<dim>1</dim>
					<dim>1024</dim>
					<dim>50</dim>
					<dim>84</dim>
				</port>
			</output>
		</layer>
		<layer id="175" name="973" precision="FP32" type="Convolution">
			<data dilations="1,1" group="1" kernel="1,1" output="1024" pads_begin="0,0" pads_end="0,0" strides="1,1"/>
			<input>
				<port id="0">
					<dim>1</dim>
					<dim>1024</dim>
					<dim>50</dim>
					<dim>84</dim>
				</port>
			</input>
			<output>
				<port id="3">
					<dim>1</dim>
					<dim>1024</dim>
					<dim>50</dim>
					<dim>84</dim>
				</port>
			</output>
			<blobs>
				<weights offset="165387340" size="4194304"/>
				<biases offset="169581644" size="4096"/>
			</blobs>
		</layer>
		<layer id="176" name="975" precision="FP32" type="ReLU">
			<input>
				<port id="0">
					<dim>1</dim>
					<dim>1024</dim>
					<dim>50</dim>
					<dim>84</dim>
				</port>
			</input>
			<output>
				<port id="1">
					<dim>1</dim>
					<dim>1024</dim>
					<dim>50</dim>
					<dim>84</dim>
				</port>
			</output>
		</layer>
		<layer id="177" name="976" precision="FP32" type="Convolution">
			<data dilations="1,1" group="32" kernel="3,3" output="1024" pads_begin="1,1" pads_end="1,1" strides="1,1"/>
			<input>
				<port id="0">
					<dim>1</dim>
					<dim>1024</dim>
					<dim>50</dim>
					<dim>84</dim>
				</port>
			</input>
			<output>
				<port id="3">
					<dim>1</dim>
					<dim>1024</dim>
					<dim>50</dim>
					<dim>84</dim>
				</port>
			</output>
			<blobs>
				<weights offset="169585740" size="1179648"/>
				<biases offset="170765388" size="4096"/>
			</blobs>
		</layer>
		<layer id="178" name="978" precision="FP32" type="ReLU">
			<input>
				<port id="0">
					<dim>1</dim>
					<dim>1024</dim>
					<dim>50</dim>
					<dim>84</dim>
				</port>
			</input>
			<output>
				<port id="1">
					<dim>1</dim>
					<dim>1024</dim>
					<dim>50</dim>
					<dim>84</dim>
				</port>
			</output>
		</layer>
		<layer id="179" name="979" precision="FP32" type="Convolution">
			<data dilations="1,1" group="1" kernel="1,1" output="1024" pads_begin="0,0" pads_end="0,0" strides="1,1"/>
			<input>
				<port id="0">
					<dim>1</dim>
					<dim>1024</dim>
					<dim>50</dim>
					<dim>84</dim>
				</port>
			</input>
			<output>
				<port id="3">
					<dim>1</dim>
					<dim>1024</dim>
					<dim>50</dim>
					<dim>84</dim>
				</port>
			</output>
			<blobs>
				<weights offset="170769484" size="4194304"/>
				<biases offset="174963788" size="4096"/>
			</blobs>
		</layer>
		<layer id="180" name="981" precision="FP32" type="Eltwise">
			<data operation="sum"/>
			<input>
				<port id="0">
					<dim>1</dim>
					<dim>1024</dim>
					<dim>50</dim>
					<dim>84</dim>
				</port>
				<port id="1">
					<dim>1</dim>
					<dim>1024</dim>
					<dim>50</dim>
					<dim>84</dim>
				</port>
			</input>
			<output>
				<port id="2">
					<dim>1</dim>
					<dim>1024</dim>
					<dim>50</dim>
					<dim>84</dim>
				</port>
			</output>
		</layer>
		<layer id="181" name="982" precision="FP32" type="ReLU">
			<input>
				<port id="0">
					<dim>1</dim>
					<dim>1024</dim>
					<dim>50</dim>
					<dim>84</dim>
				</port>
			</input>
			<output>
				<port id="1">
					<dim>1</dim>
					<dim>1024</dim>
					<dim>50</dim>
					<dim>84</dim>
				</port>
			</output>
		</layer>
		<layer id="182" name="983" precision="FP32" type="Convolution">
			<data dilations="1,1" group="1" kernel="1,1" output="1024" pads_begin="0,0" pads_end="0,0" strides="1,1"/>
			<input>
				<port id="0">
					<dim>1</dim>
					<dim>1024</dim>
					<dim>50</dim>
					<dim>84</dim>
				</port>
			</input>
			<output>
				<port id="3">
					<dim>1</dim>
					<dim>1024</dim>
					<dim>50</dim>
					<dim>84</dim>
				</port>
			</output>
			<blobs>
				<weights offset="174967884" size="4194304"/>
				<biases offset="179162188" size="4096"/>
			</blobs>
		</layer>
		<layer id="183" name="985" precision="FP32" type="ReLU">
			<input>
				<port id="0">
					<dim>1</dim>
					<dim>1024</dim>
					<dim>50</dim>
					<dim>84</dim>
				</port>
			</input>
			<output>
				<port id="1">
					<dim>1</dim>
					<dim>1024</dim>
					<dim>50</dim>
					<dim>84</dim>
				</port>
			</output>
		</layer>
		<layer id="184" name="986" precision="FP32" type="Convolution">
			<data dilations="1,1" group="32" kernel="3,3" output="1024" pads_begin="1,1" pads_end="1,1" strides="1,1"/>
			<input>
				<port id="0">
					<dim>1</dim>
					<dim>1024</dim>
					<dim>50</dim>
					<dim>84</dim>
				</port>
			</input>
			<output>
				<port id="3">
					<dim>1</dim>
					<dim>1024</dim>
					<dim>50</dim>
					<dim>84</dim>
				</port>
			</output>
			<blobs>
				<weights offset="179166284" size="1179648"/>
				<biases offset="180345932" size="4096"/>
			</blobs>
		</layer>
		<layer id="185" name="988" precision="FP32" type="ReLU">
			<input>
				<port id="0">
					<dim>1</dim>
					<dim>1024</dim>
					<dim>50</dim>
					<dim>84</dim>
				</port>
			</input>
			<output>
				<port id="1">
					<dim>1</dim>
					<dim>1024</dim>
					<dim>50</dim>
					<dim>84</dim>
				</port>
			</output>
		</layer>
		<layer id="186" name="989" precision="FP32" type="Convolution">
			<data dilations="1,1" group="1" kernel="1,1" output="1024" pads_begin="0,0" pads_end="0,0" strides="1,1"/>
			<input>
				<port id="0">
					<dim>1</dim>
					<dim>1024</dim>
					<dim>50</dim>
					<dim>84</dim>
				</port>
			</input>
			<output>
				<port id="3">
					<dim>1</dim>
					<dim>1024</dim>
					<dim>50</dim>
					<dim>84</dim>
				</port>
			</output>
			<blobs>
				<weights offset="180350028" size="4194304"/>
				<biases offset="184544332" size="4096"/>
			</blobs>
		</layer>
		<layer id="187" name="991" precision="FP32" type="Eltwise">
			<data operation="sum"/>
			<input>
				<port id="0">
					<dim>1</dim>
					<dim>1024</dim>
					<dim>50</dim>
					<dim>84</dim>
				</port>
				<port id="1">
					<dim>1</dim>
					<dim>1024</dim>
					<dim>50</dim>
					<dim>84</dim>
				</port>
			</input>
			<output>
				<port id="2">
					<dim>1</dim>
					<dim>1024</dim>
					<dim>50</dim>
					<dim>84</dim>
				</port>
			</output>
		</layer>
		<layer id="188" name="992" precision="FP32" type="ReLU">
			<input>
				<port id="0">
					<dim>1</dim>
					<dim>1024</dim>
					<dim>50</dim>
					<dim>84</dim>
				</port>
			</input>
			<output>
				<port id="1">
					<dim>1</dim>
					<dim>1024</dim>
					<dim>50</dim>
					<dim>84</dim>
				</port>
			</output>
		</layer>
		<layer id="189" name="993" precision="FP32" type="Convolution">
			<data dilations="1,1" group="1" kernel="1,1" output="1024" pads_begin="0,0" pads_end="0,0" strides="1,1"/>
			<input>
				<port id="0">
					<dim>1</dim>
					<dim>1024</dim>
					<dim>50</dim>
					<dim>84</dim>
				</port>
			</input>
			<output>
				<port id="3">
					<dim>1</dim>
					<dim>1024</dim>
					<dim>50</dim>
					<dim>84</dim>
				</port>
			</output>
			<blobs>
				<weights offset="184548428" size="4194304"/>
				<biases offset="188742732" size="4096"/>
			</blobs>
		</layer>
		<layer id="190" name="995" precision="FP32" type="ReLU">
			<input>
				<port id="0">
					<dim>1</dim>
					<dim>1024</dim>
					<dim>50</dim>
					<dim>84</dim>
				</port>
			</input>
			<output>
				<port id="1">
					<dim>1</dim>
					<dim>1024</dim>
					<dim>50</dim>
					<dim>84</dim>
				</port>
			</output>
		</layer>
		<layer id="191" name="996" precision="FP32" type="Convolution">
			<data dilations="1,1" group="32" kernel="3,3" output="1024" pads_begin="1,1" pads_end="1,1" strides="1,1"/>
			<input>
				<port id="0">
					<dim>1</dim>
					<dim>1024</dim>
					<dim>50</dim>
					<dim>84</dim>
				</port>
			</input>
			<output>
				<port id="3">
					<dim>1</dim>
					<dim>1024</dim>
					<dim>50</dim>
					<dim>84</dim>
				</port>
			</output>
			<blobs>
				<weights offset="188746828" size="1179648"/>
				<biases offset="189926476" size="4096"/>
			</blobs>
		</layer>
		<layer id="192" name="998" precision="FP32" type="ReLU">
			<input>
				<port id="0">
					<dim>1</dim>
					<dim>1024</dim>
					<dim>50</dim>
					<dim>84</dim>
				</port>
			</input>
			<output>
				<port id="1">
					<dim>1</dim>
					<dim>1024</dim>
					<dim>50</dim>
					<dim>84</dim>
				</port>
			</output>
		</layer>
		<layer id="193" name="999" precision="FP32" type="Convolution">
			<data dilations="1,1" group="1" kernel="1,1" output="1024" pads_begin="0,0" pads_end="0,0" strides="1,1"/>
			<input>
				<port id="0">
					<dim>1</dim>
					<dim>1024</dim>
					<dim>50</dim>
					<dim>84</dim>
				</port>
			</input>
			<output>
				<port id="3">
					<dim>1</dim>
					<dim>1024</dim>
					<dim>50</dim>
					<dim>84</dim>
				</port>
			</output>
			<blobs>
				<weights offset="189930572" size="4194304"/>
				<biases offset="194124876" size="4096"/>
			</blobs>
		</layer>
		<layer id="194" name="1001" precision="FP32" type="Eltwise">
			<data operation="sum"/>
			<input>
				<port id="0">
					<dim>1</dim>
					<dim>1024</dim>
					<dim>50</dim>
					<dim>84</dim>
				</port>
				<port id="1">
					<dim>1</dim>
					<dim>1024</dim>
					<dim>50</dim>
					<dim>84</dim>
				</port>
			</input>
			<output>
				<port id="2">
					<dim>1</dim>
					<dim>1024</dim>
					<dim>50</dim>
					<dim>84</dim>
				</port>
			</output>
		</layer>
		<layer id="195" name="1002" precision="FP32" type="ReLU">
			<input>
				<port id="0">
					<dim>1</dim>
					<dim>1024</dim>
					<dim>50</dim>
					<dim>84</dim>
				</port>
			</input>
			<output>
				<port id="1">
					<dim>1</dim>
					<dim>1024</dim>
					<dim>50</dim>
					<dim>84</dim>
				</port>
			</output>
		</layer>
		<layer id="196" name="1003" precision="FP32" type="Convolution">
			<data dilations="1,1" group="1" kernel="1,1" output="1024" pads_begin="0,0" pads_end="0,0" strides="1,1"/>
			<input>
				<port id="0">
					<dim>1</dim>
					<dim>1024</dim>
					<dim>50</dim>
					<dim>84</dim>
				</port>
			</input>
			<output>
				<port id="3">
					<dim>1</dim>
					<dim>1024</dim>
					<dim>50</dim>
					<dim>84</dim>
				</port>
			</output>
			<blobs>
				<weights offset="194128972" size="4194304"/>
				<biases offset="198323276" size="4096"/>
			</blobs>
		</layer>
		<layer id="197" name="1005" precision="FP32" type="ReLU">
			<input>
				<port id="0">
					<dim>1</dim>
					<dim>1024</dim>
					<dim>50</dim>
					<dim>84</dim>
				</port>
			</input>
			<output>
				<port id="1">
					<dim>1</dim>
					<dim>1024</dim>
					<dim>50</dim>
					<dim>84</dim>
				</port>
			</output>
		</layer>
		<layer id="198" name="1006" precision="FP32" type="Convolution">
			<data dilations="1,1" group="32" kernel="3,3" output="1024" pads_begin="1,1" pads_end="1,1" strides="1,1"/>
			<input>
				<port id="0">
					<dim>1</dim>
					<dim>1024</dim>
					<dim>50</dim>
					<dim>84</dim>
				</port>
			</input>
			<output>
				<port id="3">
					<dim>1</dim>
					<dim>1024</dim>
					<dim>50</dim>
					<dim>84</dim>
				</port>
			</output>
			<blobs>
				<weights offset="198327372" size="1179648"/>
				<biases offset="199507020" size="4096"/>
			</blobs>
		</layer>
		<layer id="199" name="1008" precision="FP32" type="ReLU">
			<input>
				<port id="0">
					<dim>1</dim>
					<dim>1024</dim>
					<dim>50</dim>
					<dim>84</dim>
				</port>
			</input>
			<output>
				<port id="1">
					<dim>1</dim>
					<dim>1024</dim>
					<dim>50</dim>
					<dim>84</dim>
				</port>
			</output>
		</layer>
		<layer id="200" name="1009" precision="FP32" type="Convolution">
			<data dilations="1,1" group="1" kernel="1,1" output="1024" pads_begin="0,0" pads_end="0,0" strides="1,1"/>
			<input>
				<port id="0">
					<dim>1</dim>
					<dim>1024</dim>
					<dim>50</dim>
					<dim>84</dim>
				</port>
			</input>
			<output>
				<port id="3">
					<dim>1</dim>
					<dim>1024</dim>
					<dim>50</dim>
					<dim>84</dim>
				</port>
			</output>
			<blobs>
				<weights offset="199511116" size="4194304"/>
				<biases offset="203705420" size="4096"/>
			</blobs>
		</layer>
		<layer id="201" name="1011" precision="FP32" type="Eltwise">
			<data operation="sum"/>
			<input>
				<port id="0">
					<dim>1</dim>
					<dim>1024</dim>
					<dim>50</dim>
					<dim>84</dim>
				</port>
				<port id="1">
					<dim>1</dim>
					<dim>1024</dim>
					<dim>50</dim>
					<dim>84</dim>
				</port>
			</input>
			<output>
				<port id="2">
					<dim>1</dim>
					<dim>1024</dim>
					<dim>50</dim>
					<dim>84</dim>
				</port>
			</output>
		</layer>
		<layer id="202" name="1012" precision="FP32" type="ReLU">
			<input>
				<port id="0">
					<dim>1</dim>
					<dim>1024</dim>
					<dim>50</dim>
					<dim>84</dim>
				</port>
			</input>
			<output>
				<port id="1">
					<dim>1</dim>
					<dim>1024</dim>
					<dim>50</dim>
					<dim>84</dim>
				</port>
			</output>
		</layer>
		<layer id="203" name="1013" precision="FP32" type="Convolution">
			<data dilations="1,1" group="1" kernel="1,1" output="1024" pads_begin="0,0" pads_end="0,0" strides="1,1"/>
			<input>
				<port id="0">
					<dim>1</dim>
					<dim>1024</dim>
					<dim>50</dim>
					<dim>84</dim>
				</port>
			</input>
			<output>
				<port id="3">
					<dim>1</dim>
					<dim>1024</dim>
					<dim>50</dim>
					<dim>84</dim>
				</port>
			</output>
			<blobs>
				<weights offset="203709516" size="4194304"/>
				<biases offset="207903820" size="4096"/>
			</blobs>
		</layer>
		<layer id="204" name="1015" precision="FP32" type="ReLU">
			<input>
				<port id="0">
					<dim>1</dim>
					<dim>1024</dim>
					<dim>50</dim>
					<dim>84</dim>
				</port>
			</input>
			<output>
				<port id="1">
					<dim>1</dim>
					<dim>1024</dim>
					<dim>50</dim>
					<dim>84</dim>
				</port>
			</output>
		</layer>
		<layer id="205" name="1016" precision="FP32" type="Convolution">
			<data dilations="1,1" group="32" kernel="3,3" output="1024" pads_begin="1,1" pads_end="1,1" strides="1,1"/>
			<input>
				<port id="0">
					<dim>1</dim>
					<dim>1024</dim>
					<dim>50</dim>
					<dim>84</dim>
				</port>
			</input>
			<output>
				<port id="3">
					<dim>1</dim>
					<dim>1024</dim>
					<dim>50</dim>
					<dim>84</dim>
				</port>
			</output>
			<blobs>
				<weights offset="207907916" size="1179648"/>
				<biases offset="209087564" size="4096"/>
			</blobs>
		</layer>
		<layer id="206" name="1018" precision="FP32" type="ReLU">
			<input>
				<port id="0">
					<dim>1</dim>
					<dim>1024</dim>
					<dim>50</dim>
					<dim>84</dim>
				</port>
			</input>
			<output>
				<port id="1">
					<dim>1</dim>
					<dim>1024</dim>
					<dim>50</dim>
					<dim>84</dim>
				</port>
			</output>
		</layer>
		<layer id="207" name="1019" precision="FP32" type="Convolution">
			<data dilations="1,1" group="1" kernel="1,1" output="1024" pads_begin="0,0" pads_end="0,0" strides="1,1"/>
			<input>
				<port id="0">
					<dim>1</dim>
					<dim>1024</dim>
					<dim>50</dim>
					<dim>84</dim>
				</port>
			</input>
			<output>
				<port id="3">
					<dim>1</dim>
					<dim>1024</dim>
					<dim>50</dim>
					<dim>84</dim>
				</port>
			</output>
			<blobs>
				<weights offset="209091660" size="4194304"/>
				<biases offset="213285964" size="4096"/>
			</blobs>
		</layer>
		<layer id="208" name="1021" precision="FP32" type="Eltwise">
			<data operation="sum"/>
			<input>
				<port id="0">
					<dim>1</dim>
					<dim>1024</dim>
					<dim>50</dim>
					<dim>84</dim>
				</port>
				<port id="1">
					<dim>1</dim>
					<dim>1024</dim>
					<dim>50</dim>
					<dim>84</dim>
				</port>
			</input>
			<output>
				<port id="2">
					<dim>1</dim>
					<dim>1024</dim>
					<dim>50</dim>
					<dim>84</dim>
				</port>
			</output>
		</layer>
		<layer id="209" name="1022" precision="FP32" type="ReLU">
			<input>
				<port id="0">
					<dim>1</dim>
					<dim>1024</dim>
					<dim>50</dim>
					<dim>84</dim>
				</port>
			</input>
			<output>
				<port id="1">
					<dim>1</dim>
					<dim>1024</dim>
					<dim>50</dim>
					<dim>84</dim>
				</port>
			</output>
		</layer>
		<layer id="210" name="1023" precision="FP32" type="Convolution">
			<data dilations="1,1" group="1" kernel="1,1" output="1024" pads_begin="0,0" pads_end="0,0" strides="1,1"/>
			<input>
				<port id="0">
					<dim>1</dim>
					<dim>1024</dim>
					<dim>50</dim>
					<dim>84</dim>
				</port>
			</input>
			<output>
				<port id="3">
					<dim>1</dim>
					<dim>1024</dim>
					<dim>50</dim>
					<dim>84</dim>
				</port>
			</output>
			<blobs>
				<weights offset="213290060" size="4194304"/>
				<biases offset="217484364" size="4096"/>
			</blobs>
		</layer>
		<layer id="211" name="1025" precision="FP32" type="ReLU">
			<input>
				<port id="0">
					<dim>1</dim>
					<dim>1024</dim>
					<dim>50</dim>
					<dim>84</dim>
				</port>
			</input>
			<output>
				<port id="1">
					<dim>1</dim>
					<dim>1024</dim>
					<dim>50</dim>
					<dim>84</dim>
				</port>
			</output>
		</layer>
		<layer id="212" name="1026" precision="FP32" type="Convolution">
			<data dilations="1,1" group="32" kernel="3,3" output="1024" pads_begin="1,1" pads_end="1,1" strides="1,1"/>
			<input>
				<port id="0">
					<dim>1</dim>
					<dim>1024</dim>
					<dim>50</dim>
					<dim>84</dim>
				</port>
			</input>
			<output>
				<port id="3">
					<dim>1</dim>
					<dim>1024</dim>
					<dim>50</dim>
					<dim>84</dim>
				</port>
			</output>
			<blobs>
				<weights offset="217488460" size="1179648"/>
				<biases offset="218668108" size="4096"/>
			</blobs>
		</layer>
		<layer id="213" name="1028" precision="FP32" type="ReLU">
			<input>
				<port id="0">
					<dim>1</dim>
					<dim>1024</dim>
					<dim>50</dim>
					<dim>84</dim>
				</port>
			</input>
			<output>
				<port id="1">
					<dim>1</dim>
					<dim>1024</dim>
					<dim>50</dim>
					<dim>84</dim>
				</port>
			</output>
		</layer>
		<layer id="214" name="1029" precision="FP32" type="Convolution">
			<data dilations="1,1" group="1" kernel="1,1" output="1024" pads_begin="0,0" pads_end="0,0" strides="1,1"/>
			<input>
				<port id="0">
					<dim>1</dim>
					<dim>1024</dim>
					<dim>50</dim>
					<dim>84</dim>
				</port>
			</input>
			<output>
				<port id="3">
					<dim>1</dim>
					<dim>1024</dim>
					<dim>50</dim>
					<dim>84</dim>
				</port>
			</output>
			<blobs>
				<weights offset="218672204" size="4194304"/>
				<biases offset="222866508" size="4096"/>
			</blobs>
		</layer>
		<layer id="215" name="1031" precision="FP32" type="Eltwise">
			<data operation="sum"/>
			<input>
				<port id="0">
					<dim>1</dim>
					<dim>1024</dim>
					<dim>50</dim>
					<dim>84</dim>
				</port>
				<port id="1">
					<dim>1</dim>
					<dim>1024</dim>
					<dim>50</dim>
					<dim>84</dim>
				</port>
			</input>
			<output>
				<port id="2">
					<dim>1</dim>
					<dim>1024</dim>
					<dim>50</dim>
					<dim>84</dim>
				</port>
			</output>
		</layer>
		<layer id="216" name="1032" precision="FP32" type="ReLU">
			<input>
				<port id="0">
					<dim>1</dim>
					<dim>1024</dim>
					<dim>50</dim>
					<dim>84</dim>
				</port>
			</input>
			<output>
				<port id="1">
					<dim>1</dim>
					<dim>1024</dim>
					<dim>50</dim>
					<dim>84</dim>
				</port>
			</output>
		</layer>
		<layer id="217" name="1033" precision="FP32" type="Convolution">
			<data dilations="1,1" group="1" kernel="1,1" output="1024" pads_begin="0,0" pads_end="0,0" strides="1,1"/>
			<input>
				<port id="0">
					<dim>1</dim>
					<dim>1024</dim>
					<dim>50</dim>
					<dim>84</dim>
				</port>
			</input>
			<output>
				<port id="3">
					<dim>1</dim>
					<dim>1024</dim>
					<dim>50</dim>
					<dim>84</dim>
				</port>
			</output>
			<blobs>
				<weights offset="222870604" size="4194304"/>
				<biases offset="227064908" size="4096"/>
			</blobs>
		</layer>
		<layer id="218" name="1035" precision="FP32" type="ReLU">
			<input>
				<port id="0">
					<dim>1</dim>
					<dim>1024</dim>
					<dim>50</dim>
					<dim>84</dim>
				</port>
			</input>
			<output>
				<port id="1">
					<dim>1</dim>
					<dim>1024</dim>
					<dim>50</dim>
					<dim>84</dim>
				</port>
			</output>
		</layer>
		<layer id="219" name="1036" precision="FP32" type="Convolution">
			<data dilations="1,1" group="32" kernel="3,3" output="1024" pads_begin="1,1" pads_end="1,1" strides="1,1"/>
			<input>
				<port id="0">
					<dim>1</dim>
					<dim>1024</dim>
					<dim>50</dim>
					<dim>84</dim>
				</port>
			</input>
			<output>
				<port id="3">
					<dim>1</dim>
					<dim>1024</dim>
					<dim>50</dim>
					<dim>84</dim>
				</port>
			</output>
			<blobs>
				<weights offset="227069004" size="1179648"/>
				<biases offset="228248652" size="4096"/>
			</blobs>
		</layer>
		<layer id="220" name="1038" precision="FP32" type="ReLU">
			<input>
				<port id="0">
					<dim>1</dim>
					<dim>1024</dim>
					<dim>50</dim>
					<dim>84</dim>
				</port>
			</input>
			<output>
				<port id="1">
					<dim>1</dim>
					<dim>1024</dim>
					<dim>50</dim>
					<dim>84</dim>
				</port>
			</output>
		</layer>
		<layer id="221" name="1039" precision="FP32" type="Convolution">
			<data dilations="1,1" group="1" kernel="1,1" output="1024" pads_begin="0,0" pads_end="0,0" strides="1,1"/>
			<input>
				<port id="0">
					<dim>1</dim>
					<dim>1024</dim>
					<dim>50</dim>
					<dim>84</dim>
				</port>
			</input>
			<output>
				<port id="3">
					<dim>1</dim>
					<dim>1024</dim>
					<dim>50</dim>
					<dim>84</dim>
				</port>
			</output>
			<blobs>
				<weights offset="228252748" size="4194304"/>
				<biases offset="232447052" size="4096"/>
			</blobs>
		</layer>
		<layer id="222" name="1041" precision="FP32" type="Eltwise">
			<data operation="sum"/>
			<input>
				<port id="0">
					<dim>1</dim>
					<dim>1024</dim>
					<dim>50</dim>
					<dim>84</dim>
				</port>
				<port id="1">
					<dim>1</dim>
					<dim>1024</dim>
					<dim>50</dim>
					<dim>84</dim>
				</port>
			</input>
			<output>
				<port id="2">
					<dim>1</dim>
					<dim>1024</dim>
					<dim>50</dim>
					<dim>84</dim>
				</port>
			</output>
		</layer>
		<layer id="223" name="1042" precision="FP32" type="ReLU">
			<input>
				<port id="0">
					<dim>1</dim>
					<dim>1024</dim>
					<dim>50</dim>
					<dim>84</dim>
				</port>
			</input>
			<output>
				<port id="1">
					<dim>1</dim>
					<dim>1024</dim>
					<dim>50</dim>
					<dim>84</dim>
				</port>
			</output>
		</layer>
		<layer id="224" name="1077" precision="FP32" type="Convolution">
			<data dilations="1,1" group="1" kernel="1,1" output="256" pads_begin="0,0" pads_end="0,0" strides="1,1"/>
			<input>
				<port id="0">
					<dim>1</dim>
					<dim>1024</dim>
					<dim>50</dim>
					<dim>84</dim>
				</port>
			</input>
			<output>
				<port id="3">
					<dim>1</dim>
					<dim>256</dim>
					<dim>50</dim>
					<dim>84</dim>
				</port>
			</output>
			<blobs>
				<weights offset="232451148" size="1048576"/>
				<biases offset="233499724" size="1024"/>
			</blobs>
		</layer>
		<layer id="225" name="1043" precision="FP32" type="Convolution">
			<data dilations="1,1" group="1" kernel="1,1" output="2048" pads_begin="0,0" pads_end="0,0" strides="2,2"/>
			<input>
				<port id="0">
					<dim>1</dim>
					<dim>1024</dim>
					<dim>50</dim>
					<dim>84</dim>
				</port>
			</input>
			<output>
				<port id="3">
					<dim>1</dim>
					<dim>2048</dim>
					<dim>25</dim>
					<dim>42</dim>
				</port>
			</output>
			<blobs>
				<weights offset="233500748" size="8388608"/>
				<biases offset="241889356" size="8192"/>
			</blobs>
		</layer>
		<layer id="226" name="1045" precision="FP32" type="ReLU">
			<input>
				<port id="0">
					<dim>1</dim>
					<dim>2048</dim>
					<dim>25</dim>
					<dim>42</dim>
				</port>
			</input>
			<output>
				<port id="1">
					<dim>1</dim>
					<dim>2048</dim>
					<dim>25</dim>
					<dim>42</dim>
				</port>
			</output>
		</layer>
		<layer id="227" name="1046" precision="FP32" type="Convolution">
			<data dilations="1,1" group="32" kernel="3,3" output="2048" pads_begin="1,1" pads_end="1,1" strides="1,1"/>
			<input>
				<port id="0">
					<dim>1</dim>
					<dim>2048</dim>
					<dim>25</dim>
					<dim>42</dim>
				</port>
			</input>
			<output>
				<port id="3">
					<dim>1</dim>
					<dim>2048</dim>
					<dim>25</dim>
					<dim>42</dim>
				</port>
			</output>
			<blobs>
				<weights offset="241897548" size="4718592"/>
				<biases offset="246616140" size="8192"/>
			</blobs>
		</layer>
		<layer id="228" name="1048" precision="FP32" type="ReLU">
			<input>
				<port id="0">
					<dim>1</dim>
					<dim>2048</dim>
					<dim>25</dim>
					<dim>42</dim>
				</port>
			</input>
			<output>
				<port id="1">
					<dim>1</dim>
					<dim>2048</dim>
					<dim>25</dim>
					<dim>42</dim>
				</port>
			</output>
		</layer>
		<layer id="229" name="1049" precision="FP32" type="Convolution">
			<data dilations="1,1" group="1" kernel="1,1" output="2048" pads_begin="0,0" pads_end="0,0" strides="1,1"/>
			<input>
				<port id="0">
					<dim>1</dim>
					<dim>2048</dim>
					<dim>25</dim>
					<dim>42</dim>
				</port>
			</input>
			<output>
				<port id="3">
					<dim>1</dim>
					<dim>2048</dim>
					<dim>25</dim>
					<dim>42</dim>
				</port>
			</output>
			<blobs>
				<weights offset="246624332" size="16777216"/>
				<biases offset="263401548" size="8192"/>
			</blobs>
		</layer>
		<layer id="230" name="1051" precision="FP32" type="Convolution">
			<data dilations="1,1" group="1" kernel="1,1" output="2048" pads_begin="0,0" pads_end="0,0" strides="2,2"/>
			<input>
				<port id="0">
					<dim>1</dim>
					<dim>1024</dim>
					<dim>50</dim>
					<dim>84</dim>
				</port>
			</input>
			<output>
				<port id="3">
					<dim>1</dim>
					<dim>2048</dim>
					<dim>25</dim>
					<dim>42</dim>
				</port>
			</output>
			<blobs>
				<weights offset="263409740" size="8388608"/>
				<biases offset="271798348" size="8192"/>
			</blobs>
		</layer>
		<layer id="231" name="1053" precision="FP32" type="Eltwise">
			<data operation="sum"/>
			<input>
				<port id="0">
					<dim>1</dim>
					<dim>2048</dim>
					<dim>25</dim>
					<dim>42</dim>
				</port>
				<port id="1">
					<dim>1</dim>
					<dim>2048</dim>
					<dim>25</dim>
					<dim>42</dim>
				</port>
			</input>
			<output>
				<port id="2">
					<dim>1</dim>
					<dim>2048</dim>
					<dim>25</dim>
					<dim>42</dim>
				</port>
			</output>
		</layer>
		<layer id="232" name="1054" precision="FP32" type="ReLU">
			<input>
				<port id="0">
					<dim>1</dim>
					<dim>2048</dim>
					<dim>25</dim>
					<dim>42</dim>
				</port>
			</input>
			<output>
				<port id="1">
					<dim>1</dim>
					<dim>2048</dim>
					<dim>25</dim>
					<dim>42</dim>
				</port>
			</output>
		</layer>
		<layer id="233" name="1055" precision="FP32" type="Convolution">
			<data dilations="1,1" group="1" kernel="1,1" output="2048" pads_begin="0,0" pads_end="0,0" strides="1,1"/>
			<input>
				<port id="0">
					<dim>1</dim>
					<dim>2048</dim>
					<dim>25</dim>
					<dim>42</dim>
				</port>
			</input>
			<output>
				<port id="3">
					<dim>1</dim>
					<dim>2048</dim>
					<dim>25</dim>
					<dim>42</dim>
				</port>
			</output>
			<blobs>
				<weights offset="271806540" size="16777216"/>
				<biases offset="288583756" size="8192"/>
			</blobs>
		</layer>
		<layer id="234" name="1057" precision="FP32" type="ReLU">
			<input>
				<port id="0">
					<dim>1</dim>
					<dim>2048</dim>
					<dim>25</dim>
					<dim>42</dim>
				</port>
			</input>
			<output>
				<port id="1">
					<dim>1</dim>
					<dim>2048</dim>
					<dim>25</dim>
					<dim>42</dim>
				</port>
			</output>
		</layer>
		<layer id="235" name="1058" precision="FP32" type="Convolution">
			<data dilations="1,1" group="32" kernel="3,3" output="2048" pads_begin="1,1" pads_end="1,1" strides="1,1"/>
			<input>
				<port id="0">
					<dim>1</dim>
					<dim>2048</dim>
					<dim>25</dim>
					<dim>42</dim>
				</port>
			</input>
			<output>
				<port id="3">
					<dim>1</dim>
					<dim>2048</dim>
					<dim>25</dim>
					<dim>42</dim>
				</port>
			</output>
			<blobs>
				<weights offset="288591948" size="4718592"/>
				<biases offset="293310540" size="8192"/>
			</blobs>
		</layer>
		<layer id="236" name="1060" precision="FP32" type="ReLU">
			<input>
				<port id="0">
					<dim>1</dim>
					<dim>2048</dim>
					<dim>25</dim>
					<dim>42</dim>
				</port>
			</input>
			<output>
				<port id="1">
					<dim>1</dim>
					<dim>2048</dim>
					<dim>25</dim>
					<dim>42</dim>
				</port>
			</output>
		</layer>
		<layer id="237" name="1061" precision="FP32" type="Convolution">
			<data dilations="1,1" group="1" kernel="1,1" output="2048" pads_begin="0,0" pads_end="0,0" strides="1,1"/>
			<input>
				<port id="0">
					<dim>1</dim>
					<dim>2048</dim>
					<dim>25</dim>
					<dim>42</dim>
				</port>
			</input>
			<output>
				<port id="3">
					<dim>1</dim>
					<dim>2048</dim>
					<dim>25</dim>
					<dim>42</dim>
				</port>
			</output>
			<blobs>
				<weights offset="293318732" size="16777216"/>
				<biases offset="310095948" size="8192"/>
			</blobs>
		</layer>
		<layer id="238" name="1063" precision="FP32" type="Eltwise">
			<data operation="sum"/>
			<input>
				<port id="0">
					<dim>1</dim>
					<dim>2048</dim>
					<dim>25</dim>
					<dim>42</dim>
				</port>
				<port id="1">
					<dim>1</dim>
					<dim>2048</dim>
					<dim>25</dim>
					<dim>42</dim>
				</port>
			</input>
			<output>
				<port id="2">
					<dim>1</dim>
					<dim>2048</dim>
					<dim>25</dim>
					<dim>42</dim>
				</port>
			</output>
		</layer>
		<layer id="239" name="1064" precision="FP32" type="ReLU">
			<input>
				<port id="0">
					<dim>1</dim>
					<dim>2048</dim>
					<dim>25</dim>
					<dim>42</dim>
				</port>
			</input>
			<output>
				<port id="1">
					<dim>1</dim>
					<dim>2048</dim>
					<dim>25</dim>
					<dim>42</dim>
				</port>
			</output>
		</layer>
		<layer id="240" name="1065" precision="FP32" type="Convolution">
			<data dilations="1,1" group="1" kernel="1,1" output="2048" pads_begin="0,0" pads_end="0,0" strides="1,1"/>
			<input>
				<port id="0">
					<dim>1</dim>
					<dim>2048</dim>
					<dim>25</dim>
					<dim>42</dim>
				</port>
			</input>
			<output>
				<port id="3">
					<dim>1</dim>
					<dim>2048</dim>
					<dim>25</dim>
					<dim>42</dim>
				</port>
			</output>
			<blobs>
				<weights offset="310104140" size="16777216"/>
				<biases offset="326881356" size="8192"/>
			</blobs>
		</layer>
		<layer id="241" name="1067" precision="FP32" type="ReLU">
			<input>
				<port id="0">
					<dim>1</dim>
					<dim>2048</dim>
					<dim>25</dim>
					<dim>42</dim>
				</port>
			</input>
			<output>
				<port id="1">
					<dim>1</dim>
					<dim>2048</dim>
					<dim>25</dim>
					<dim>42</dim>
				</port>
			</output>
		</layer>
		<layer id="242" name="1068" precision="FP32" type="Convolution">
			<data dilations="1,1" group="32" kernel="3,3" output="2048" pads_begin="1,1" pads_end="1,1" strides="1,1"/>
			<input>
				<port id="0">
					<dim>1</dim>
					<dim>2048</dim>
					<dim>25</dim>
					<dim>42</dim>
				</port>
			</input>
			<output>
				<port id="3">
					<dim>1</dim>
					<dim>2048</dim>
					<dim>25</dim>
					<dim>42</dim>
				</port>
			</output>
			<blobs>
				<weights offset="326889548" size="4718592"/>
				<biases offset="331608140" size="8192"/>
			</blobs>
		</layer>
		<layer id="243" name="1070" precision="FP32" type="ReLU">
			<input>
				<port id="0">
					<dim>1</dim>
					<dim>2048</dim>
					<dim>25</dim>
					<dim>42</dim>
				</port>
			</input>
			<output>
				<port id="1">
					<dim>1</dim>
					<dim>2048</dim>
					<dim>25</dim>
					<dim>42</dim>
				</port>
			</output>
		</layer>
		<layer id="244" name="1071" precision="FP32" type="Convolution">
			<data dilations="1,1" group="1" kernel="1,1" output="2048" pads_begin="0,0" pads_end="0,0" strides="1,1"/>
			<input>
				<port id="0">
					<dim>1</dim>
					<dim>2048</dim>
					<dim>25</dim>
					<dim>42</dim>
				</port>
			</input>
			<output>
				<port id="3">
					<dim>1</dim>
					<dim>2048</dim>
					<dim>25</dim>
					<dim>42</dim>
				</port>
			</output>
			<blobs>
				<weights offset="331616332" size="16777216"/>
				<biases offset="348393548" size="8192"/>
			</blobs>
		</layer>
		<layer id="245" name="1073" precision="FP32" type="Eltwise">
			<data operation="sum"/>
			<input>
				<port id="0">
					<dim>1</dim>
					<dim>2048</dim>
					<dim>25</dim>
					<dim>42</dim>
				</port>
				<port id="1">
					<dim>1</dim>
					<dim>2048</dim>
					<dim>25</dim>
					<dim>42</dim>
				</port>
			</input>
			<output>
				<port id="2">
					<dim>1</dim>
					<dim>2048</dim>
					<dim>25</dim>
					<dim>42</dim>
				</port>
			</output>
		</layer>
		<layer id="246" name="1074" precision="FP32" type="ReLU">
			<input>
				<port id="0">
					<dim>1</dim>
					<dim>2048</dim>
					<dim>25</dim>
					<dim>42</dim>
				</port>
			</input>
			<output>
				<port id="1">
					<dim>1</dim>
					<dim>2048</dim>
					<dim>25</dim>
					<dim>42</dim>
				</port>
			</output>
		</layer>
		<layer id="247" name="1075" precision="FP32" type="Convolution">
			<data dilations="1,1" group="1" kernel="1,1" output="256" pads_begin="0,0" pads_end="0,0" strides="1,1"/>
			<input>
				<port id="0">
					<dim>1</dim>
					<dim>2048</dim>
					<dim>25</dim>
					<dim>42</dim>
				</port>
			</input>
			<output>
				<port id="3">
					<dim>1</dim>
					<dim>256</dim>
					<dim>25</dim>
					<dim>42</dim>
				</port>
			</output>
			<blobs>
				<weights offset="348401740" size="2097152"/>
				<biases offset="350498892" size="1024"/>
			</blobs>
		</layer>
		<layer id="248" name="Interpolate/1078" precision="FP32" type="Resample">
			<data antialias="0" factor="2.0" height="0" type="caffe.ResampleParameter.NEAREST" width="0"/>
			<input>
				<port id="0">
					<dim>1</dim>
					<dim>256</dim>
					<dim>25</dim>
					<dim>42</dim>
				</port>
			</input>
			<output>
				<port id="1">
					<dim>1</dim>
					<dim>256</dim>
					<dim>50</dim>
					<dim>84</dim>
				</port>
			</output>
		</layer>
		<layer id="249" name="1079" precision="FP32" type="Eltwise">
			<data operation="sum"/>
			<input>
				<port id="0">
					<dim>1</dim>
					<dim>256</dim>
					<dim>50</dim>
					<dim>84</dim>
				</port>
				<port id="1">
					<dim>1</dim>
					<dim>256</dim>
					<dim>50</dim>
					<dim>84</dim>
				</port>
			</input>
			<output>
				<port id="2">
					<dim>1</dim>
					<dim>256</dim>
					<dim>50</dim>
					<dim>84</dim>
				</port>
			</output>
		</layer>
		<layer id="250" name="Interpolate/1082" precision="FP32" type="Resample">
			<data antialias="0" factor="2.0" height="0" type="caffe.ResampleParameter.NEAREST" width="0"/>
			<input>
				<port id="0">
					<dim>1</dim>
					<dim>256</dim>
					<dim>50</dim>
					<dim>84</dim>
				</port>
			</input>
			<output>
				<port id="1">
					<dim>1</dim>
					<dim>256</dim>
					<dim>100</dim>
					<dim>168</dim>
				</port>
			</output>
		</layer>
		<layer id="251" name="1083" precision="FP32" type="Eltwise">
			<data operation="sum"/>
			<input>
				<port id="0">
					<dim>1</dim>
					<dim>256</dim>
					<dim>100</dim>
					<dim>168</dim>
				</port>
				<port id="1">
					<dim>1</dim>
					<dim>256</dim>
					<dim>100</dim>
					<dim>168</dim>
				</port>
			</input>
			<output>
				<port id="2">
					<dim>1</dim>
					<dim>256</dim>
					<dim>100</dim>
					<dim>168</dim>
				</port>
			</output>
		</layer>
		<layer id="252" name="Interpolate/1086" precision="FP32" type="Resample">
			<data antialias="0" factor="2.0" height="0" type="caffe.ResampleParameter.NEAREST" width="0"/>
			<input>
				<port id="0">
					<dim>1</dim>
					<dim>256</dim>
					<dim>100</dim>
					<dim>168</dim>
				</port>
			</input>
			<output>
				<port id="1">
					<dim>1</dim>
					<dim>256</dim>
					<dim>200</dim>
					<dim>336</dim>
				</port>
			</output>
		</layer>
		<layer id="253" name="1087" precision="FP32" type="Eltwise">
			<data operation="sum"/>
			<input>
				<port id="0">
					<dim>1</dim>
					<dim>256</dim>
					<dim>200</dim>
					<dim>336</dim>
				</port>
				<port id="1">
					<dim>1</dim>
					<dim>256</dim>
					<dim>200</dim>
					<dim>336</dim>
				</port>
			</input>
			<output>
				<port id="2">
					<dim>1</dim>
					<dim>256</dim>
					<dim>200</dim>
					<dim>336</dim>
				</port>
			</output>
		</layer>
		<layer id="254" name="1088" precision="FP32" type="Convolution">
			<data dilations="1,1" group="1" kernel="3,3" output="256" pads_begin="1,1" pads_end="1,1" strides="1,1"/>
			<input>
				<port id="0">
					<dim>1</dim>
					<dim>256</dim>
					<dim>200</dim>
					<dim>336</dim>
				</port>
			</input>
			<output>
				<port id="3">
					<dim>1</dim>
					<dim>256</dim>
					<dim>200</dim>
					<dim>336</dim>
				</port>
			</output>
			<blobs>
				<weights offset="350499916" size="2359296"/>
				<biases offset="352859212" size="1024"/>
			</blobs>
		</layer>
		<layer id="255" name="1117" precision="FP32" type="ExperimentalDetectronPriorGridGenerator">
			<data flatten="1" h="0" stride_x="4.0" stride_y="4.0" w="0"/>
			<input>
				<port id="0">
					<dim>3</dim>
					<dim>4</dim>
				</port>
				<port id="1">
					<dim>1</dim>
					<dim>256</dim>
					<dim>200</dim>
					<dim>336</dim>
				</port>
				<port id="2">
					<dim>1</dim>
					<dim>3</dim>
					<dim>800</dim>
					<dim>1344</dim>
				</port>
			</input>
			<output>
				<port id="3">
					<dim>201600</dim>
					<dim>4</dim>
				</port>
			</output>
		</layer>
		<layer id="256" name="1122" precision="FP32" type="Convolution">
			<data dilations="1,1" group="1" kernel="3,3" output="256" pads_begin="1,1" pads_end="1,1" strides="1,1"/>
			<input>
				<port id="0">
					<dim>1</dim>
					<dim>256</dim>
					<dim>200</dim>
					<dim>336</dim>
				</port>
			</input>
			<output>
				<port id="3">
					<dim>1</dim>
					<dim>256</dim>
					<dim>200</dim>
					<dim>336</dim>
				</port>
			</output>
			<blobs>
				<weights offset="352860236" size="2359296"/>
				<biases offset="355219532" size="1024"/>
			</blobs>
		</layer>
		<layer id="257" name="1123" precision="FP32" type="ReLU">
			<input>
				<port id="0">
					<dim>1</dim>
					<dim>256</dim>
					<dim>200</dim>
					<dim>336</dim>
				</port>
			</input>
			<output>
				<port id="1">
					<dim>1</dim>
					<dim>256</dim>
					<dim>200</dim>
					<dim>336</dim>
				</port>
			</output>
		</layer>
		<layer id="258" name="1125" precision="FP32" type="Convolution">
			<data dilations="1,1" group="1" kernel="1,1" output="12" pads_begin="0,0" pads_end="0,0" strides="1,1"/>
			<input>
				<port id="0">
					<dim>1</dim>
					<dim>256</dim>
					<dim>200</dim>
					<dim>336</dim>
				</port>
			</input>
			<output>
				<port id="3">
					<dim>1</dim>
					<dim>12</dim>
					<dim>200</dim>
					<dim>336</dim>
				</port>
			</output>
			<blobs>
				<weights offset="355220556" size="12288"/>
				<biases offset="355232844" size="48"/>
			</blobs>
		</layer>
		<layer id="259" name="1130/Dims/Output_0/Data__const" precision="I32" type="Const">
			<output>
				<port id="1">
					<dim>1</dim>
				</port>
			</output>
			<blobs>
				<custom offset="0" size="4"/>
			</blobs>
		</layer>
		<layer id="260" name="1130" precision="FP32" type="Squeeze">
			<input>
				<port id="0">
					<dim>1</dim>
					<dim>12</dim>
					<dim>200</dim>
					<dim>336</dim>
				</port>
				<port id="1">
					<dim>1</dim>
				</port>
			</input>
			<output>
				<port id="2">
					<dim>12</dim>
					<dim>200</dim>
					<dim>336</dim>
				</port>
			</output>
		</layer>
		<layer id="261" name="1124" precision="FP32" type="Convolution">
			<data dilations="1,1" group="1" kernel="1,1" output="3" pads_begin="0,0" pads_end="0,0" strides="1,1"/>
			<input>
				<port id="0">
					<dim>1</dim>
					<dim>256</dim>
					<dim>200</dim>
					<dim>336</dim>
				</port>
			</input>
			<output>
				<port id="3">
					<dim>1</dim>
					<dim>3</dim>
					<dim>200</dim>
					<dim>336</dim>
				</port>
			</output>
			<blobs>
				<weights offset="355232892" size="3072"/>
				<biases offset="355235964" size="12"/>
			</blobs>
		</layer>
		<layer id="262" name="1126" precision="FP32" type="Activation">
			<data type="sigmoid"/>
			<input>
				<port id="0">
					<dim>1</dim>
					<dim>3</dim>
					<dim>200</dim>
					<dim>336</dim>
				</port>
			</input>
			<output>
				<port id="1">
					<dim>1</dim>
					<dim>3</dim>
					<dim>200</dim>
					<dim>336</dim>
				</port>
			</output>
		</layer>
		<layer id="263" name="1132/Dims/Output_0/Data__const" precision="I32" type="Const">
			<output>
				<port id="1">
					<dim>1</dim>
				</port>
			</output>
			<blobs>
				<custom offset="0" size="4"/>
			</blobs>
		</layer>
		<layer id="264" name="1132" precision="FP32" type="Squeeze">
			<input>
				<port id="0">
					<dim>1</dim>
					<dim>3</dim>
					<dim>200</dim>
					<dim>336</dim>
				</port>
				<port id="1">
					<dim>1</dim>
				</port>
			</input>
			<output>
				<port id="2">
					<dim>3</dim>
					<dim>200</dim>
					<dim>336</dim>
				</port>
			</output>
		</layer>
		<layer id="265" name="1133" precision="FP32" type="ExperimentalDetectronGenerateProposalsSingleImage">
			<data min_size="0.0" nms_threshold="0.699999988079071" post_nms_count="1000" pre_nms_count="1000"/>
			<input>
				<port id="0">
					<dim>3</dim>
				</port>
				<port id="1">
					<dim>201600</dim>
					<dim>4</dim>
				</port>
				<port id="2">
					<dim>12</dim>
					<dim>200</dim>
					<dim>336</dim>
				</port>
				<port id="3">
					<dim>3</dim>
					<dim>200</dim>
					<dim>336</dim>
				</port>
			</input>
			<output>
				<port id="4">
					<dim>1000</dim>
					<dim>4</dim>
				</port>
				<port id="5">
					<dim>1000</dim>
				</port>
			</output>
		</layer>
		<layer id="266" name="1141/Dims/Output_0/Data__const" precision="I32" type="Const">
			<output>
				<port id="1">
					<dim>1</dim>
				</port>
			</output>
			<blobs>
				<custom offset="0" size="4"/>
			</blobs>
		</layer>
		<layer id="267" name="1141" precision="FP32" type="Squeeze">
			<input>
				<port id="0">
					<dim>1</dim>
					<dim>3</dim>
				</port>
				<port id="1">
					<dim>1</dim>
				</port>
			</input>
			<output>
				<port id="2">
					<dim>3</dim>
				</port>
			</output>
		</layer>
		<layer id="268" name="643/Output_0/Data__const" precision="FP32" type="Const">
			<output>
				<port id="1">
					<dim>3</dim>
					<dim>4</dim>
				</port>
			</output>
			<blobs>
				<custom offset="355235976" size="48"/>
			</blobs>
		</layer>
		<layer id="269" name="1089" precision="FP32" type="Convolution">
			<data dilations="1,1" group="1" kernel="3,3" output="18" pads_begin="1,1" pads_end="1,1" strides="2,2"/>
			<input>
				<port id="0">
					<dim>1</dim>
					<dim>256</dim>
					<dim>200</dim>
					<dim>336</dim>
				</port>
			</input>
			<output>
				<port id="2">
					<dim>1</dim>
					<dim>18</dim>
					<dim>100</dim>
					<dim>168</dim>
				</port>
			</output>
			<blobs>
				<weights offset="355236024" size="165888"/>
			</blobs>
		</layer>
		<layer id="270" name="1090" precision="FP32" type="DeformableConvolution">
			<data deformable_group="1" dilations="1,1" group="1" kernel="3,3" output="256" pads_begin="1,1" pads_end="1,1" strides="2,2"/>
			<input>
				<port id="0">
					<dim>1</dim>
					<dim>256</dim>
					<dim>200</dim>
					<dim>336</dim>
				</port>
				<port id="1">
					<dim>1</dim>
					<dim>18</dim>
					<dim>100</dim>
					<dim>168</dim>
				</port>
			</input>
			<output>
				<port id="3">
					<dim>1</dim>
					<dim>256</dim>
					<dim>100</dim>
					<dim>168</dim>
				</port>
			</output>
			<blobs>
				<weights offset="355401912" size="2359296"/>
			</blobs>
		</layer>
		<layer id="271" name="1380313808_const" precision="I32" type="Const">
			<output>
				<port id="1">
					<dim>4</dim>
				</port>
			</output>
			<blobs>
				<custom offset="357761208" size="16"/>
			</blobs>
		</layer>
		<layer id="272" name="13807" precision="FP32" type="Reshape">
			<input>
				<port id="0">
					<dim>1</dim>
					<dim>256</dim>
					<dim>100</dim>
					<dim>168</dim>
				</port>
				<port id="1">
					<dim>4</dim>
				</port>
			</input>
			<output>
				<port id="2">
					<dim>32</dim>
					<dim>8</dim>
					<dim>100</dim>
					<dim>168</dim>
				</port>
			</output>
		</layer>
		<layer id="273" name="1091/MVN" precision="FP32" type="MVN">
			<data across_channels="1" eps="9.999999747378752e-06" normalize_variance="1"/>
			<input>
				<port id="0">
					<dim>32</dim>
					<dim>8</dim>
					<dim>100</dim>
					<dim>168</dim>
				</port>
			</input>
			<output>
				<port id="1">
					<dim>32</dim>
					<dim>8</dim>
					<dim>100</dim>
					<dim>168</dim>
				</port>
			</output>
		</layer>
		<layer id="274" name="1091/Shape13787_const" precision="I32" type="Const">
			<output>
				<port id="1">
					<dim>4</dim>
				</port>
			</output>
			<blobs>
				<custom offset="357761224" size="16"/>
			</blobs>
		</layer>
		<layer id="275" name="13811" precision="FP32" type="Reshape">
			<input>
				<port id="0">
					<dim>32</dim>
					<dim>8</dim>
					<dim>100</dim>
					<dim>168</dim>
				</port>
				<port id="1">
					<dim>4</dim>
				</port>
			</input>
			<output>
				<port id="2">
					<dim>1</dim>
					<dim>256</dim>
					<dim>100</dim>
					<dim>168</dim>
				</port>
			</output>
		</layer>
		<layer id="276" name="1091/MVN/Mul/FusedScaleShift_" precision="FP32" type="ScaleShift">
			<input>
				<port id="0">
					<dim>1</dim>
					<dim>256</dim>
					<dim>100</dim>
					<dim>168</dim>
				</port>
			</input>
			<output>
				<port id="3">
					<dim>1</dim>
					<dim>256</dim>
					<dim>100</dim>
					<dim>168</dim>
				</port>
			</output>
			<blobs>
				<weights offset="357761240" size="1024"/>
				<biases offset="357762264" size="1024"/>
			</blobs>
		</layer>
		<layer id="277" name="1092" precision="FP32" type="ReLU">
			<input>
				<port id="0">
					<dim>1</dim>
					<dim>256</dim>
					<dim>100</dim>
					<dim>168</dim>
				</port>
			</input>
			<output>
				<port id="1">
					<dim>1</dim>
					<dim>256</dim>
					<dim>100</dim>
					<dim>168</dim>
				</port>
			</output>
		</layer>
		<layer id="278" name="1084" precision="FP32" type="Convolution">
			<data dilations="1,1" group="1" kernel="3,3" output="256" pads_begin="1,1" pads_end="1,1" strides="1,1"/>
			<input>
				<port id="0">
					<dim>1</dim>
					<dim>256</dim>
					<dim>100</dim>
					<dim>168</dim>
				</port>
			</input>
			<output>
				<port id="3">
					<dim>1</dim>
					<dim>256</dim>
					<dim>100</dim>
					<dim>168</dim>
				</port>
			</output>
			<blobs>
				<weights offset="357763288" size="2359296"/>
				<biases offset="360122584" size="1024"/>
			</blobs>
		</layer>
		<layer id="279" name="1093" precision="FP32" type="Eltwise">
			<data operation="sum"/>
			<input>
				<port id="0">
					<dim>1</dim>
					<dim>256</dim>
					<dim>100</dim>
					<dim>168</dim>
				</port>
				<port id="1">
					<dim>1</dim>
					<dim>256</dim>
					<dim>100</dim>
					<dim>168</dim>
				</port>
			</input>
			<output>
				<port id="2">
					<dim>1</dim>
					<dim>256</dim>
					<dim>100</dim>
					<dim>168</dim>
				</port>
			</output>
		</layer>
		<layer id="280" name="1094" precision="FP32" type="Convolution">
			<data dilations="1,1" group="1" kernel="3,3" output="18" pads_begin="1,1" pads_end="1,1" strides="1,1"/>
			<input>
				<port id="0">
					<dim>1</dim>
					<dim>256</dim>
					<dim>100</dim>
					<dim>168</dim>
				</port>
			</input>
			<output>
				<port id="2">
					<dim>1</dim>
					<dim>18</dim>
					<dim>100</dim>
					<dim>168</dim>
				</port>
			</output>
			<blobs>
				<weights offset="360123608" size="165888"/>
			</blobs>
		</layer>
		<layer id="281" name="1095" precision="FP32" type="DeformableConvolution">
			<data deformable_group="1" dilations="1,1" group="1" kernel="3,3" output="256" pads_begin="1,1" pads_end="1,1" strides="1,1"/>
			<input>
				<port id="0">
					<dim>1</dim>
					<dim>256</dim>
					<dim>100</dim>
					<dim>168</dim>
				</port>
				<port id="1">
					<dim>1</dim>
					<dim>18</dim>
					<dim>100</dim>
					<dim>168</dim>
				</port>
			</input>
			<output>
				<port id="3">
					<dim>1</dim>
					<dim>256</dim>
					<dim>100</dim>
					<dim>168</dim>
				</port>
			</output>
			<blobs>
				<weights offset="360289496" size="2359296"/>
			</blobs>
		</layer>
		<layer id="282" name="1387113876_const" precision="I32" type="Const">
			<output>
				<port id="1">
					<dim>4</dim>
				</port>
			</output>
			<blobs>
				<custom offset="357761208" size="16"/>
			</blobs>
		</layer>
		<layer id="283" name="13875" precision="FP32" type="Reshape">
			<input>
				<port id="0">
					<dim>1</dim>
					<dim>256</dim>
					<dim>100</dim>
					<dim>168</dim>
				</port>
				<port id="1">
					<dim>4</dim>
				</port>
			</input>
			<output>
				<port id="2">
					<dim>32</dim>
					<dim>8</dim>
					<dim>100</dim>
					<dim>168</dim>
				</port>
			</output>
		</layer>
		<layer id="284" name="1096/MVN" precision="FP32" type="MVN">
			<data across_channels="1" eps="9.999999747378752e-06" normalize_variance="1"/>
			<input>
				<port id="0">
					<dim>32</dim>
					<dim>8</dim>
					<dim>100</dim>
					<dim>168</dim>
				</port>
			</input>
			<output>
				<port id="1">
					<dim>32</dim>
					<dim>8</dim>
					<dim>100</dim>
					<dim>168</dim>
				</port>
			</output>
		</layer>
		<layer id="285" name="1096/Shape13855_const" precision="I32" type="Const">
			<output>
				<port id="1">
					<dim>4</dim>
				</port>
			</output>
			<blobs>
				<custom offset="357761224" size="16"/>
			</blobs>
		</layer>
		<layer id="286" name="13879" precision="FP32" type="Reshape">
			<input>
				<port id="0">
					<dim>32</dim>
					<dim>8</dim>
					<dim>100</dim>
					<dim>168</dim>
				</port>
				<port id="1">
					<dim>4</dim>
				</port>
			</input>
			<output>
				<port id="2">
					<dim>1</dim>
					<dim>256</dim>
					<dim>100</dim>
					<dim>168</dim>
				</port>
			</output>
		</layer>
		<layer id="287" name="1096/MVN/Mul/FusedScaleShift_" precision="FP32" type="ScaleShift">
			<input>
				<port id="0">
					<dim>1</dim>
					<dim>256</dim>
					<dim>100</dim>
					<dim>168</dim>
				</port>
			</input>
			<output>
				<port id="3">
					<dim>1</dim>
					<dim>256</dim>
					<dim>100</dim>
					<dim>168</dim>
				</port>
			</output>
			<blobs>
				<weights offset="362648792" size="1024"/>
				<biases offset="362649816" size="1024"/>
			</blobs>
		</layer>
		<layer id="288" name="1097" precision="FP32" type="ReLU">
			<input>
				<port id="0">
					<dim>1</dim>
					<dim>256</dim>
					<dim>100</dim>
					<dim>168</dim>
				</port>
			</input>
			<output>
				<port id="1">
					<dim>1</dim>
					<dim>256</dim>
					<dim>100</dim>
					<dim>168</dim>
				</port>
			</output>
		</layer>
		<layer id="289" name="1118" precision="FP32" type="ExperimentalDetectronPriorGridGenerator">
			<data flatten="1" h="0" stride_x="8.0" stride_y="8.0" w="0"/>
			<input>
				<port id="0">
					<dim>3</dim>
					<dim>4</dim>
				</port>
				<port id="1">
					<dim>1</dim>
					<dim>256</dim>
					<dim>100</dim>
					<dim>168</dim>
				</port>
				<port id="2">
					<dim>1</dim>
					<dim>3</dim>
					<dim>800</dim>
					<dim>1344</dim>
				</port>
			</input>
			<output>
				<port id="3">
					<dim>50400</dim>
					<dim>4</dim>
				</port>
			</output>
		</layer>
		<layer id="290" name="1135" precision="FP32" type="Convolution">
			<data dilations="1,1" group="1" kernel="3,3" output="256" pads_begin="1,1" pads_end="1,1" strides="1,1"/>
			<input>
				<port id="0">
					<dim>1</dim>
					<dim>256</dim>
					<dim>100</dim>
					<dim>168</dim>
				</port>
			</input>
			<output>
				<port id="3">
					<dim>1</dim>
					<dim>256</dim>
					<dim>100</dim>
					<dim>168</dim>
				</port>
			</output>
			<blobs>
				<weights offset="352860236" size="2359296"/>
				<biases offset="355219532" size="1024"/>
			</blobs>
		</layer>
		<layer id="291" name="1136" precision="FP32" type="ReLU">
			<input>
				<port id="0">
					<dim>1</dim>
					<dim>256</dim>
					<dim>100</dim>
					<dim>168</dim>
				</port>
			</input>
			<output>
				<port id="1">
					<dim>1</dim>
					<dim>256</dim>
					<dim>100</dim>
					<dim>168</dim>
				</port>
			</output>
		</layer>
		<layer id="292" name="1138" precision="FP32" type="Convolution">
			<data dilations="1,1" group="1" kernel="1,1" output="12" pads_begin="0,0" pads_end="0,0" strides="1,1"/>
			<input>
				<port id="0">
					<dim>1</dim>
					<dim>256</dim>
					<dim>100</dim>
					<dim>168</dim>
				</port>
			</input>
			<output>
				<port id="3">
					<dim>1</dim>
					<dim>12</dim>
					<dim>100</dim>
					<dim>168</dim>
				</port>
			</output>
			<blobs>
				<weights offset="355220556" size="12288"/>
				<biases offset="355232844" size="48"/>
			</blobs>
		</layer>
		<layer id="293" name="1143/Dims/Output_0/Data__const" precision="I32" type="Const">
			<output>
				<port id="1">
					<dim>1</dim>
				</port>
			</output>
			<blobs>
				<custom offset="0" size="4"/>
			</blobs>
		</layer>
		<layer id="294" name="1143" precision="FP32" type="Squeeze">
			<input>
				<port id="0">
					<dim>1</dim>
					<dim>12</dim>
					<dim>100</dim>
					<dim>168</dim>
				</port>
				<port id="1">
					<dim>1</dim>
				</port>
			</input>
			<output>
				<port id="2">
					<dim>12</dim>
					<dim>100</dim>
					<dim>168</dim>
				</port>
			</output>
		</layer>
		<layer id="295" name="1137" precision="FP32" type="Convolution">
			<data dilations="1,1" group="1" kernel="1,1" output="3" pads_begin="0,0" pads_end="0,0" strides="1,1"/>
			<input>
				<port id="0">
					<dim>1</dim>
					<dim>256</dim>
					<dim>100</dim>
					<dim>168</dim>
				</port>
			</input>
			<output>
				<port id="3">
					<dim>1</dim>
					<dim>3</dim>
					<dim>100</dim>
					<dim>168</dim>
				</port>
			</output>
			<blobs>
				<weights offset="355232892" size="3072"/>
				<biases offset="355235964" size="12"/>
			</blobs>
		</layer>
		<layer id="296" name="1139" precision="FP32" type="Activation">
			<data type="sigmoid"/>
			<input>
				<port id="0">
					<dim>1</dim>
					<dim>3</dim>
					<dim>100</dim>
					<dim>168</dim>
				</port>
			</input>
			<output>
				<port id="1">
					<dim>1</dim>
					<dim>3</dim>
					<dim>100</dim>
					<dim>168</dim>
				</port>
			</output>
		</layer>
		<layer id="297" name="1145/Dims/Output_0/Data__const" precision="I32" type="Const">
			<output>
				<port id="1">
					<dim>1</dim>
				</port>
			</output>
			<blobs>
				<custom offset="0" size="4"/>
			</blobs>
		</layer>
		<layer id="298" name="1145" precision="FP32" type="Squeeze">
			<input>
				<port id="0">
					<dim>1</dim>
					<dim>3</dim>
					<dim>100</dim>
					<dim>168</dim>
				</port>
				<port id="1">
					<dim>1</dim>
				</port>
			</input>
			<output>
				<port id="2">
					<dim>3</dim>
					<dim>100</dim>
					<dim>168</dim>
				</port>
			</output>
		</layer>
		<layer id="299" name="1146" precision="FP32" type="ExperimentalDetectronGenerateProposalsSingleImage">
			<data min_size="0.0" nms_threshold="0.699999988079071" post_nms_count="1000" pre_nms_count="1000"/>
			<input>
				<port id="0">
					<dim>3</dim>
				</port>
				<port id="1">
					<dim>50400</dim>
					<dim>4</dim>
				</port>
				<port id="2">
					<dim>12</dim>
					<dim>100</dim>
					<dim>168</dim>
				</port>
				<port id="3">
					<dim>3</dim>
					<dim>100</dim>
					<dim>168</dim>
				</port>
			</input>
			<output>
				<port id="4">
					<dim>1000</dim>
					<dim>4</dim>
				</port>
				<port id="5">
					<dim>1000</dim>
				</port>
			</output>
		</layer>
		<layer id="300" name="1154/Dims/Output_0/Data__const" precision="I32" type="Const">
			<output>
				<port id="1">
					<dim>1</dim>
				</port>
			</output>
			<blobs>
				<custom offset="0" size="4"/>
			</blobs>
		</layer>
		<layer id="301" name="1154" precision="FP32" type="Squeeze">
			<input>
				<port id="0">
					<dim>1</dim>
					<dim>3</dim>
				</port>
				<port id="1">
					<dim>1</dim>
				</port>
			</input>
			<output>
				<port id="2">
					<dim>3</dim>
				</port>
			</output>
		</layer>
		<layer id="302" name="644/Output_0/Data__const" precision="FP32" type="Const">
			<output>
				<port id="1">
					<dim>3</dim>
					<dim>4</dim>
				</port>
			</output>
			<blobs>
				<custom offset="362650840" size="48"/>
			</blobs>
		</layer>
		<layer id="303" name="1098" precision="FP32" type="Convolution">
			<data dilations="1,1" group="1" kernel="3,3" output="18" pads_begin="1,1" pads_end="1,1" strides="2,2"/>
			<input>
				<port id="0">
					<dim>1</dim>
					<dim>256</dim>
					<dim>100</dim>
					<dim>168</dim>
				</port>
			</input>
			<output>
				<port id="2">
					<dim>1</dim>
					<dim>18</dim>
					<dim>50</dim>
					<dim>84</dim>
				</port>
			</output>
			<blobs>
				<weights offset="362650888" size="165888"/>
			</blobs>
		</layer>
		<layer id="304" name="1099" precision="FP32" type="DeformableConvolution">
			<data deformable_group="1" dilations="1,1" group="1" kernel="3,3" output="256" pads_begin="1,1" pads_end="1,1" strides="2,2"/>
			<input>
				<port id="0">
					<dim>1</dim>
					<dim>256</dim>
					<dim>100</dim>
					<dim>168</dim>
				</port>
				<port id="1">
					<dim>1</dim>
					<dim>18</dim>
					<dim>50</dim>
					<dim>84</dim>
				</port>
			</input>
			<output>
				<port id="3">
					<dim>1</dim>
					<dim>256</dim>
					<dim>50</dim>
					<dim>84</dim>
				</port>
			</output>
			<blobs>
				<weights offset="362816776" size="2359296"/>
			</blobs>
		</layer>
		<layer id="305" name="1366713672_const" precision="I32" type="Const">
			<output>
				<port id="1">
					<dim>4</dim>
				</port>
			</output>
			<blobs>
				<custom offset="365176072" size="16"/>
			</blobs>
		</layer>
		<layer id="306" name="13671" precision="FP32" type="Reshape">
			<input>
				<port id="0">
					<dim>1</dim>
					<dim>256</dim>
					<dim>50</dim>
					<dim>84</dim>
				</port>
				<port id="1">
					<dim>4</dim>
				</port>
			</input>
			<output>
				<port id="2">
					<dim>32</dim>
					<dim>8</dim>
					<dim>50</dim>
					<dim>84</dim>
				</port>
			</output>
		</layer>
		<layer id="307" name="1100/MVN" precision="FP32" type="MVN">
			<data across_channels="1" eps="9.999999747378752e-06" normalize_variance="1"/>
			<input>
				<port id="0">
					<dim>32</dim>
					<dim>8</dim>
					<dim>50</dim>
					<dim>84</dim>
				</port>
			</input>
			<output>
				<port id="1">
					<dim>32</dim>
					<dim>8</dim>
					<dim>50</dim>
					<dim>84</dim>
				</port>
			</output>
		</layer>
		<layer id="308" name="1100/Shape13651_const" precision="I32" type="Const">
			<output>
				<port id="1">
					<dim>4</dim>
				</port>
			</output>
			<blobs>
				<custom offset="365176088" size="16"/>
			</blobs>
		</layer>
		<layer id="309" name="13675" precision="FP32" type="Reshape">
			<input>
				<port id="0">
					<dim>32</dim>
					<dim>8</dim>
					<dim>50</dim>
					<dim>84</dim>
				</port>
				<port id="1">
					<dim>4</dim>
				</port>
			</input>
			<output>
				<port id="2">
					<dim>1</dim>
					<dim>256</dim>
					<dim>50</dim>
					<dim>84</dim>
				</port>
			</output>
		</layer>
		<layer id="310" name="1100/MVN/Mul/FusedScaleShift_" precision="FP32" type="ScaleShift">
			<input>
				<port id="0">
					<dim>1</dim>
					<dim>256</dim>
					<dim>50</dim>
					<dim>84</dim>
				</port>
			</input>
			<output>
				<port id="3">
					<dim>1</dim>
					<dim>256</dim>
					<dim>50</dim>
					<dim>84</dim>
				</port>
			</output>
			<blobs>
				<weights offset="365176104" size="1024"/>
				<biases offset="365177128" size="1024"/>
			</blobs>
		</layer>
		<layer id="311" name="1101" precision="FP32" type="ReLU">
			<input>
				<port id="0">
					<dim>1</dim>
					<dim>256</dim>
					<dim>50</dim>
					<dim>84</dim>
				</port>
			</input>
			<output>
				<port id="1">
					<dim>1</dim>
					<dim>256</dim>
					<dim>50</dim>
					<dim>84</dim>
				</port>
			</output>
		</layer>
		<layer id="312" name="1080" precision="FP32" type="Convolution">
			<data dilations="1,1" group="1" kernel="3,3" output="256" pads_begin="1,1" pads_end="1,1" strides="1,1"/>
			<input>
				<port id="0">
					<dim>1</dim>
					<dim>256</dim>
					<dim>50</dim>
					<dim>84</dim>
				</port>
			</input>
			<output>
				<port id="3">
					<dim>1</dim>
					<dim>256</dim>
					<dim>50</dim>
					<dim>84</dim>
				</port>
			</output>
			<blobs>
				<weights offset="365178152" size="2359296"/>
				<biases offset="367537448" size="1024"/>
			</blobs>
		</layer>
		<layer id="313" name="1102" precision="FP32" type="Eltwise">
			<data operation="sum"/>
			<input>
				<port id="0">
					<dim>1</dim>
					<dim>256</dim>
					<dim>50</dim>
					<dim>84</dim>
				</port>
				<port id="1">
					<dim>1</dim>
					<dim>256</dim>
					<dim>50</dim>
					<dim>84</dim>
				</port>
			</input>
			<output>
				<port id="2">
					<dim>1</dim>
					<dim>256</dim>
					<dim>50</dim>
					<dim>84</dim>
				</port>
			</output>
		</layer>
		<layer id="314" name="1103" precision="FP32" type="Convolution">
			<data dilations="1,1" group="1" kernel="3,3" output="18" pads_begin="1,1" pads_end="1,1" strides="1,1"/>
			<input>
				<port id="0">
					<dim>1</dim>
					<dim>256</dim>
					<dim>50</dim>
					<dim>84</dim>
				</port>
			</input>
			<output>
				<port id="2">
					<dim>1</dim>
					<dim>18</dim>
					<dim>50</dim>
					<dim>84</dim>
				</port>
			</output>
			<blobs>
				<weights offset="367538472" size="165888"/>
			</blobs>
		</layer>
		<layer id="315" name="1104" precision="FP32" type="DeformableConvolution">
			<data deformable_group="1" dilations="1,1" group="1" kernel="3,3" output="256" pads_begin="1,1" pads_end="1,1" strides="1,1"/>
			<input>
				<port id="0">
					<dim>1</dim>
					<dim>256</dim>
					<dim>50</dim>
					<dim>84</dim>
				</port>
				<port id="1">
					<dim>1</dim>
					<dim>18</dim>
					<dim>50</dim>
					<dim>84</dim>
				</port>
			</input>
			<output>
				<port id="3">
					<dim>1</dim>
					<dim>256</dim>
					<dim>50</dim>
					<dim>84</dim>
				</port>
			</output>
			<blobs>
				<weights offset="367704360" size="2359296"/>
			</blobs>
		</layer>
		<layer id="316" name="1370113706_const" precision="I32" type="Const">
			<output>
				<port id="1">
					<dim>4</dim>
				</port>
			</output>
			<blobs>
				<custom offset="365176072" size="16"/>
			</blobs>
		</layer>
		<layer id="317" name="13705" precision="FP32" type="Reshape">
			<input>
				<port id="0">
					<dim>1</dim>
					<dim>256</dim>
					<dim>50</dim>
					<dim>84</dim>
				</port>
				<port id="1">
					<dim>4</dim>
				</port>
			</input>
			<output>
				<port id="2">
					<dim>32</dim>
					<dim>8</dim>
					<dim>50</dim>
					<dim>84</dim>
				</port>
			</output>
		</layer>
		<layer id="318" name="1105/MVN" precision="FP32" type="MVN">
			<data across_channels="1" eps="9.999999747378752e-06" normalize_variance="1"/>
			<input>
				<port id="0">
					<dim>32</dim>
					<dim>8</dim>
					<dim>50</dim>
					<dim>84</dim>
				</port>
			</input>
			<output>
				<port id="1">
					<dim>32</dim>
					<dim>8</dim>
					<dim>50</dim>
					<dim>84</dim>
				</port>
			</output>
		</layer>
		<layer id="319" name="1105/Shape13685_const" precision="I32" type="Const">
			<output>
				<port id="1">
					<dim>4</dim>
				</port>
			</output>
			<blobs>
				<custom offset="365176088" size="16"/>
			</blobs>
		</layer>
		<layer id="320" name="13709" precision="FP32" type="Reshape">
			<input>
				<port id="0">
					<dim>32</dim>
					<dim>8</dim>
					<dim>50</dim>
					<dim>84</dim>
				</port>
				<port id="1">
					<dim>4</dim>
				</port>
			</input>
			<output>
				<port id="2">
					<dim>1</dim>
					<dim>256</dim>
					<dim>50</dim>
					<dim>84</dim>
				</port>
			</output>
		</layer>
		<layer id="321" name="1105/MVN/Mul/FusedScaleShift_" precision="FP32" type="ScaleShift">
			<input>
				<port id="0">
					<dim>1</dim>
					<dim>256</dim>
					<dim>50</dim>
					<dim>84</dim>
				</port>
			</input>
			<output>
				<port id="3">
					<dim>1</dim>
					<dim>256</dim>
					<dim>50</dim>
					<dim>84</dim>
				</port>
			</output>
			<blobs>
				<weights offset="370063656" size="1024"/>
				<biases offset="370064680" size="1024"/>
			</blobs>
		</layer>
		<layer id="322" name="1106" precision="FP32" type="ReLU">
			<input>
				<port id="0">
					<dim>1</dim>
					<dim>256</dim>
					<dim>50</dim>
					<dim>84</dim>
				</port>
			</input>
			<output>
				<port id="1">
					<dim>1</dim>
					<dim>256</dim>
					<dim>50</dim>
					<dim>84</dim>
				</port>
			</output>
		</layer>
		<layer id="323" name="1119" precision="FP32" type="ExperimentalDetectronPriorGridGenerator">
			<data flatten="1" h="0" stride_x="16.0" stride_y="16.0" w="0"/>
			<input>
				<port id="0">
					<dim>3</dim>
					<dim>4</dim>
				</port>
				<port id="1">
					<dim>1</dim>
					<dim>256</dim>
					<dim>50</dim>
					<dim>84</dim>
				</port>
				<port id="2">
					<dim>1</dim>
					<dim>3</dim>
					<dim>800</dim>
					<dim>1344</dim>
				</port>
			</input>
			<output>
				<port id="3">
					<dim>12600</dim>
					<dim>4</dim>
				</port>
			</output>
		</layer>
		<layer id="324" name="1148" precision="FP32" type="Convolution">
			<data dilations="1,1" group="1" kernel="3,3" output="256" pads_begin="1,1" pads_end="1,1" strides="1,1"/>
			<input>
				<port id="0">
					<dim>1</dim>
					<dim>256</dim>
					<dim>50</dim>
					<dim>84</dim>
				</port>
			</input>
			<output>
				<port id="3">
					<dim>1</dim>
					<dim>256</dim>
					<dim>50</dim>
					<dim>84</dim>
				</port>
			</output>
			<blobs>
				<weights offset="352860236" size="2359296"/>
				<biases offset="355219532" size="1024"/>
			</blobs>
		</layer>
		<layer id="325" name="1149" precision="FP32" type="ReLU">
			<input>
				<port id="0">
					<dim>1</dim>
					<dim>256</dim>
					<dim>50</dim>
					<dim>84</dim>
				</port>
			</input>
			<output>
				<port id="1">
					<dim>1</dim>
					<dim>256</dim>
					<dim>50</dim>
					<dim>84</dim>
				</port>
			</output>
		</layer>
		<layer id="326" name="1151" precision="FP32" type="Convolution">
			<data dilations="1,1" group="1" kernel="1,1" output="12" pads_begin="0,0" pads_end="0,0" strides="1,1"/>
			<input>
				<port id="0">
					<dim>1</dim>
					<dim>256</dim>
					<dim>50</dim>
					<dim>84</dim>
				</port>
			</input>
			<output>
				<port id="3">
					<dim>1</dim>
					<dim>12</dim>
					<dim>50</dim>
					<dim>84</dim>
				</port>
			</output>
			<blobs>
				<weights offset="355220556" size="12288"/>
				<biases offset="355232844" size="48"/>
			</blobs>
		</layer>
		<layer id="327" name="1156/Dims/Output_0/Data__const" precision="I32" type="Const">
			<output>
				<port id="1">
					<dim>1</dim>
				</port>
			</output>
			<blobs>
				<custom offset="0" size="4"/>
			</blobs>
		</layer>
		<layer id="328" name="1156" precision="FP32" type="Squeeze">
			<input>
				<port id="0">
					<dim>1</dim>
					<dim>12</dim>
					<dim>50</dim>
					<dim>84</dim>
				</port>
				<port id="1">
					<dim>1</dim>
				</port>
			</input>
			<output>
				<port id="2">
					<dim>12</dim>
					<dim>50</dim>
					<dim>84</dim>
				</port>
			</output>
		</layer>
		<layer id="329" name="1150" precision="FP32" type="Convolution">
			<data dilations="1,1" group="1" kernel="1,1" output="3" pads_begin="0,0" pads_end="0,0" strides="1,1"/>
			<input>
				<port id="0">
					<dim>1</dim>
					<dim>256</dim>
					<dim>50</dim>
					<dim>84</dim>
				</port>
			</input>
			<output>
				<port id="3">
					<dim>1</dim>
					<dim>3</dim>
					<dim>50</dim>
					<dim>84</dim>
				</port>
			</output>
			<blobs>
				<weights offset="355232892" size="3072"/>
				<biases offset="355235964" size="12"/>
			</blobs>
		</layer>
		<layer id="330" name="1152" precision="FP32" type="Activation">
			<data type="sigmoid"/>
			<input>
				<port id="0">
					<dim>1</dim>
					<dim>3</dim>
					<dim>50</dim>
					<dim>84</dim>
				</port>
			</input>
			<output>
				<port id="1">
					<dim>1</dim>
					<dim>3</dim>
					<dim>50</dim>
					<dim>84</dim>
				</port>
			</output>
		</layer>
		<layer id="331" name="1158/Dims/Output_0/Data__const" precision="I32" type="Const">
			<output>
				<port id="1">
					<dim>1</dim>
				</port>
			</output>
			<blobs>
				<custom offset="0" size="4"/>
			</blobs>
		</layer>
		<layer id="332" name="1158" precision="FP32" type="Squeeze">
			<input>
				<port id="0">
					<dim>1</dim>
					<dim>3</dim>
					<dim>50</dim>
					<dim>84</dim>
				</port>
				<port id="1">
					<dim>1</dim>
				</port>
			</input>
			<output>
				<port id="2">
					<dim>3</dim>
					<dim>50</dim>
					<dim>84</dim>
				</port>
			</output>
		</layer>
		<layer id="333" name="1159" precision="FP32" type="ExperimentalDetectronGenerateProposalsSingleImage">
			<data min_size="0.0" nms_threshold="0.699999988079071" post_nms_count="1000" pre_nms_count="1000"/>
			<input>
				<port id="0">
					<dim>3</dim>
				</port>
				<port id="1">
					<dim>12600</dim>
					<dim>4</dim>
				</port>
				<port id="2">
					<dim>12</dim>
					<dim>50</dim>
					<dim>84</dim>
				</port>
				<port id="3">
					<dim>3</dim>
					<dim>50</dim>
					<dim>84</dim>
				</port>
			</input>
			<output>
				<port id="4">
					<dim>1000</dim>
					<dim>4</dim>
				</port>
				<port id="5">
					<dim>1000</dim>
				</port>
			</output>
		</layer>
		<layer id="334" name="1167/Dims/Output_0/Data__const" precision="I32" type="Const">
			<output>
				<port id="1">
					<dim>1</dim>
				</port>
			</output>
			<blobs>
				<custom offset="0" size="4"/>
			</blobs>
		</layer>
		<layer id="335" name="1167" precision="FP32" type="Squeeze">
			<input>
				<port id="0">
					<dim>1</dim>
					<dim>3</dim>
				</port>
				<port id="1">
					<dim>1</dim>
				</port>
			</input>
			<output>
				<port id="2">
					<dim>3</dim>
				</port>
			</output>
		</layer>
		<layer id="336" name="645/Output_0/Data__const" precision="FP32" type="Const">
			<output>
				<port id="1">
					<dim>3</dim>
					<dim>4</dim>
				</port>
			</output>
			<blobs>
				<custom offset="370065704" size="48"/>
			</blobs>
		</layer>
		<layer id="337" name="1107" precision="FP32" type="Convolution">
			<data dilations="1,1" group="1" kernel="3,3" output="18" pads_begin="1,1" pads_end="1,1" strides="2,2"/>
			<input>
				<port id="0">
					<dim>1</dim>
					<dim>256</dim>
					<dim>50</dim>
					<dim>84</dim>
				</port>
			</input>
			<output>
				<port id="2">
					<dim>1</dim>
					<dim>18</dim>
					<dim>25</dim>
					<dim>42</dim>
				</port>
			</output>
			<blobs>
				<weights offset="370065752" size="165888"/>
			</blobs>
		</layer>
		<layer id="338" name="1108" precision="FP32" type="DeformableConvolution">
			<data deformable_group="1" dilations="1,1" group="1" kernel="3,3" output="256" pads_begin="1,1" pads_end="1,1" strides="2,2"/>
			<input>
				<port id="0">
					<dim>1</dim>
					<dim>256</dim>
					<dim>50</dim>
					<dim>84</dim>
				</port>
				<port id="1">
					<dim>1</dim>
					<dim>18</dim>
					<dim>25</dim>
					<dim>42</dim>
				</port>
			</input>
			<output>
				<port id="3">
					<dim>1</dim>
					<dim>256</dim>
					<dim>25</dim>
					<dim>42</dim>
				</port>
			</output>
			<blobs>
				<weights offset="370231640" size="2359296"/>
			</blobs>
		</layer>
		<layer id="339" name="1376913774_const" precision="I32" type="Const">
			<output>
				<port id="1">
					<dim>4</dim>
				</port>
			</output>
			<blobs>
				<custom offset="372590936" size="16"/>
			</blobs>
		</layer>
		<layer id="340" name="13773" precision="FP32" type="Reshape">
			<input>
				<port id="0">
					<dim>1</dim>
					<dim>256</dim>
					<dim>25</dim>
					<dim>42</dim>
				</port>
…
			</input>
			<output>
				<port id="3">
					<dim>100</dim>
					<dim>256</dim>
					<dim>14</dim>
					<dim>14</dim>
				</port>
			</output>
			<blobs>
				<weights offset="608899432" size="1024"/>
				<biases offset="608900456" size="1024"/>
			</blobs>
		</layer>
		<layer id="494" name="1257" precision="FP32" type="ReLU">
			<input>
				<port id="0">
					<dim>100</dim>
					<dim>256</dim>
					<dim>14</dim>
					<dim>14</dim>
				</port>
			</input>
			<output>
				<port id="1">
					<dim>100</dim>
					<dim>256</dim>
					<dim>14</dim>
					<dim>14</dim>
				</port>
			</output>
		</layer>
		<layer id="495" name="1264" precision="FP32" type="Convolution">
			<data dilations="1,1" group="1" kernel="3,3" output="128" pads_begin="1,1" pads_end="1,1" strides="1,1"/>
			<input>
				<port id="0">
					<dim>100</dim>
					<dim>256</dim>
					<dim>14</dim>
					<dim>14</dim>
				</port>
			</input>
			<output>
				<port id="3">
					<dim>100</dim>
					<dim>128</dim>
					<dim>14</dim>
					<dim>14</dim>
				</port>
			</output>
			<blobs>
				<weights offset="608901480" size="1179648"/>
				<biases offset="610081128" size="512"/>
			</blobs>
		</layer>
		<layer id="496" name="1359913604_const" precision="I32" type="Const">
			<output>
				<port id="1">
					<dim>4</dim>
				</port>
			</output>
			<blobs>
				<custom offset="610081640" size="16"/>
			</blobs>
		</layer>
		<layer id="497" name="13603" precision="FP32" type="Reshape">
			<input>
				<port id="0">
					<dim>100</dim>
					<dim>128</dim>
					<dim>14</dim>
					<dim>14</dim>
				</port>
				<port id="1">
					<dim>4</dim>
				</port>
			</input>
			<output>
				<port id="2">
					<dim>3200</dim>
					<dim>4</dim>
					<dim>14</dim>
					<dim>14</dim>
				</port>
			</output>
		</layer>
		<layer id="498" name="1265/MVN" precision="FP32" type="MVN">
			<data across_channels="1" eps="9.999999747378752e-06" normalize_variance="1"/>
			<input>
				<port id="0">
					<dim>3200</dim>
					<dim>4</dim>
					<dim>14</dim>
					<dim>14</dim>
				</port>
			</input>
			<output>
				<port id="1">
					<dim>3200</dim>
					<dim>4</dim>
					<dim>14</dim>
					<dim>14</dim>
				</port>
			</output>
		</layer>
		<layer id="499" name="1265/Shape13583_const" precision="I32" type="Const">
			<output>
				<port id="1">
					<dim>4</dim>
				</port>
			</output>
			<blobs>
				<custom offset="610081656" size="16"/>
			</blobs>
		</layer>
		<layer id="500" name="13607" precision="FP32" type="Reshape">
			<input>
				<port id="0">
					<dim>3200</dim>
					<dim>4</dim>
					<dim>14</dim>
					<dim>14</dim>
				</port>
				<port id="1">
					<dim>4</dim>
				</port>
			</input>
			<output>
				<port id="2">
					<dim>100</dim>
					<dim>128</dim>
					<dim>14</dim>
					<dim>14</dim>
				</port>
			</output>
		</layer>
		<layer id="501" name="1265/MVN/Mul/FusedScaleShift_" precision="FP32" type="ScaleShift">
			<input>
				<port id="0">
					<dim>100</dim>
					<dim>128</dim>
					<dim>14</dim>
					<dim>14</dim>
				</port>
			</input>
			<output>
				<port id="3">
					<dim>100</dim>
					<dim>128</dim>
					<dim>14</dim>
					<dim>14</dim>
				</port>
			</output>
			<blobs>
				<weights offset="610081672" size="512"/>
				<biases offset="610082184" size="512"/>
			</blobs>
		</layer>
		<layer id="502" name="1266" precision="FP32" type="ReLU">
			<input>
				<port id="0">
					<dim>100</dim>
					<dim>128</dim>
					<dim>14</dim>
					<dim>14</dim>
				</port>
			</input>
			<output>
				<port id="1">
					<dim>100</dim>
					<dim>128</dim>
					<dim>14</dim>
					<dim>14</dim>
				</port>
			</output>
		</layer>
		<layer id="503" name="1267/Dims/value10601_const" precision="I32" type="Const">
			<output>
				<port id="1">
					<dim>2</dim>
				</port>
			</output>
			<blobs>
				<custom offset="610082696" size="8"/>
			</blobs>
		</layer>
		<layer id="504" name="1267/Dims" precision="FP32" type="Reshape">
			<input>
				<port id="0">
					<dim>100</dim>
					<dim>128</dim>
					<dim>14</dim>
					<dim>14</dim>
				</port>
				<port id="1">
					<dim>2</dim>
				</port>
			</input>
			<output>
				<port id="2">
					<dim>100</dim>
					<dim>25088</dim>
				</port>
			</output>
		</layer>
		<layer id="505" name="1268" precision="FP32" type="FullyConnected">
			<data out-size="784"/>
			<input>
				<port id="0">
					<dim>100</dim>
					<dim>25088</dim>
				</port>
			</input>
			<output>
				<port id="3">
					<dim>100</dim>
					<dim>784</dim>
				</port>
			</output>
			<blobs>
				<weights offset="610082704" size="78675968"/>
				<biases offset="688758672" size="3136"/>
			</blobs>
		</layer>
		<layer id="506" name="1269" precision="FP32" type="ReLU">
			<input>
				<port id="0">
					<dim>100</dim>
					<dim>784</dim>
				</port>
			</input>
			<output>
				<port id="1">
					<dim>100</dim>
					<dim>784</dim>
				</port>
			</output>
		</layer>
		<layer id="507" name="1270/Output_0/Data__const" precision="I32" type="Const">
			<output>
				<port id="1">
					<dim>4</dim>
				</port>
			</output>
			<blobs>
				<custom offset="688761808" size="16"/>
			</blobs>
		</layer>
		<layer id="508" name="1271" precision="FP32" type="Reshape">
			<input>
				<port id="0">
					<dim>100</dim>
					<dim>784</dim>
				</port>
				<port id="1">
					<dim>4</dim>
				</port>
			</input>
			<output>
				<port id="2">
					<dim>100</dim>
					<dim>1</dim>
					<dim>28</dim>
					<dim>28</dim>
				</port>
			</output>
		</layer>
		<layer id="509" name="1272" precision="FP32" type="Eltwise">
			<data operation="sum"/>
			<input>
				<port id="0">
					<dim>100</dim>
					<dim>81</dim>
					<dim>28</dim>
					<dim>28</dim>
				</port>
				<port id="1">
					<dim>100</dim>
					<dim>1</dim>
					<dim>28</dim>
					<dim>28</dim>
				</port>
			</input>
			<output>
				<port id="2">
					<dim>100</dim>
					<dim>81</dim>
					<dim>28</dim>
					<dim>28</dim>
				</port>
			</output>
		</layer>
		<layer id="510" name="1273" precision="FP32" type="Activation">
			<data type="sigmoid"/>
			<input>
				<port id="0">
					<dim>100</dim>
					<dim>81</dim>
					<dim>28</dim>
					<dim>28</dim>
				</port>
			</input>
			<output>
				<port id="1">
					<dim>100</dim>
					<dim>81</dim>
					<dim>28</dim>
					<dim>28</dim>
				</port>
			</output>
		</layer>
		<layer id="511" name="raw_masks" precision="FP32" type="Power">
			<data power="1" scale="1" shift="0.0"/>
			<input>
				<port id="0">
					<dim>100</dim>
					<dim>81</dim>
					<dim>28</dim>
					<dim>28</dim>
				</port>
			</input>
			<output>
				<port id="1">
					<dim>100</dim>
					<dim>81</dim>
					<dim>28</dim>
					<dim>28</dim>
				</port>
			</output>
		</layer>
		<layer id="512" name="scores" precision="FP32" type="Power">
			<data power="1" scale="1" shift="0.0"/>
			<input>
				<port id="0">
					<dim>100</dim>
				</port>
			</input>
			<output>
				<port id="1">
					<dim>100</dim>
				</port>
			</output>
		</layer>
	</layers>
	<edges>
		<edge from-layer="0" from-port="0" to-layer="2" to-port="0"/>
		<edge from-layer="1" from-port="1" to-layer="2" to-port="1"/>
		<edge from-layer="4" from-port="0" to-layer="5" to-port="0"/>
		<edge from-layer="5" from-port="3" to-layer="6" to-port="0"/>
		<edge from-layer="6" from-port="3" to-layer="7" to-port="0"/>
		<edge from-layer="7" from-port="1" to-layer="8" to-port="0"/>
		<edge from-layer="8" from-port="1" to-layer="9" to-port="0"/>
		<edge from-layer="9" from-port="3" to-layer="10" to-port="0"/>
		<edge from-layer="10" from-port="1" to-layer="11" to-port="0"/>
		<edge from-layer="11" from-port="3" to-layer="12" to-port="0"/>
		<edge from-layer="12" from-port="1" to-layer="13" to-port="0"/>
		<edge from-layer="8" from-port="1" to-layer="14" to-port="0"/>
		<edge from-layer="13" from-port="3" to-layer="15" to-port="0"/>
		<edge from-layer="14" from-port="3" to-layer="15" to-port="1"/>
		<edge from-layer="15" from-port="2" to-layer="16" to-port="0"/>
		<edge from-layer="16" from-port="1" to-layer="17" to-port="0"/>
		<edge from-layer="17" from-port="3" to-layer="18" to-port="0"/>
		<edge from-layer="18" from-port="1" to-layer="19" to-port="0"/>
		<edge from-layer="19" from-port="3" to-layer="20" to-port="0"/>
		<edge from-layer="20" from-port="1" to-layer="21" to-port="0"/>
		<edge from-layer="21" from-port="3" to-layer="22" to-port="0"/>
		<edge from-layer="16" from-port="1" to-layer="22" to-port="1"/>
		<edge from-layer="22" from-port="2" to-layer="23" to-port="0"/>
		<edge from-layer="23" from-port="1" to-layer="24" to-port="0"/>
		<edge from-layer="24" from-port="3" to-layer="25" to-port="0"/>
		<edge from-layer="25" from-port="1" to-layer="26" to-port="0"/>
		<edge from-layer="26" from-port="3" to-layer="27" to-port="0"/>
		<edge from-layer="27" from-port="1" to-layer="28" to-port="0"/>
		<edge from-layer="28" from-port="3" to-layer="29" to-port="0"/>
		<edge from-layer="23" from-port="1" to-layer="29" to-port="1"/>
		<edge from-layer="29" from-port="2" to-layer="30" to-port="0"/>
		<edge from-layer="30" from-port="1" to-layer="31" to-port="0"/>
		<edge from-layer="30" from-port="1" to-layer="32" to-port="0"/>
		<edge from-layer="32" from-port="3" to-layer="33" to-port="0"/>
		<edge from-layer="33" from-port="1" to-layer="34" to-port="0"/>
		<edge from-layer="34" from-port="3" to-layer="35" to-port="0"/>
		<edge from-layer="35" from-port="1" to-layer="36" to-port="0"/>
		<edge from-layer="30" from-port="1" to-layer="37" to-port="0"/>
		<edge from-layer="36" from-port="3" to-layer="38" to-port="0"/>
		<edge from-layer="37" from-port="3" to-layer="38" to-port="1"/>
		<edge from-layer="38" from-port="2" to-layer="39" to-port="0"/>
		<edge from-layer="39" from-port="1" to-layer="40" to-port="0"/>
		<edge from-layer="40" from-port="3" to-layer="41" to-port="0"/>
		<edge from-layer="41" from-port="1" to-layer="42" to-port="0"/>
		<edge from-layer="42" from-port="3" to-layer="43" to-port="0"/>
		<edge from-layer="43" from-port="1" to-layer="44" to-port="0"/>
		<edge from-layer="44" from-port="3" to-layer="45" to-port="0"/>
		<edge from-layer="39" from-port="1" to-layer="45" to-port="1"/>
		<edge from-layer="45" from-port="2" to-layer="46" to-port="0"/>
		<edge from-layer="46" from-port="1" to-layer="47" to-port="0"/>
		<edge from-layer="47" from-port="3" to-layer="48" to-port="0"/>
		<edge from-layer="48" from-port="1" to-layer="49" to-port="0"/>
		<edge from-layer="49" from-port="3" to-layer="50" to-port="0"/>
		<edge from-layer="50" from-port="1" to-layer="51" to-port="0"/>
		<edge from-layer="51" from-port="3" to-layer="52" to-port="0"/>
		<edge from-layer="46" from-port="1" to-layer="52" to-port="1"/>
		<edge from-layer="52" from-port="2" to-layer="53" to-port="0"/>
		<edge from-layer="53" from-port="1" to-layer="54" to-port="0"/>
		<edge from-layer="54" from-port="3" to-layer="55" to-port="0"/>
		<edge from-layer="55" from-port="1" to-layer="56" to-port="0"/>
		<edge from-layer="56" from-port="3" to-layer="57" to-port="0"/>
		<edge from-layer="57" from-port="1" to-layer="58" to-port="0"/>
		<edge from-layer="58" from-port="3" to-layer="59" to-port="0"/>
		<edge from-layer="53" from-port="1" to-layer="59" to-port="1"/>
		<edge from-layer="59" from-port="2" to-layer="60" to-port="0"/>
		<edge from-layer="60" from-port="1" to-layer="61" to-port="0"/>
		<edge from-layer="60" from-port="1" to-layer="62" to-port="0"/>
		<edge from-layer="62" from-port="3" to-layer="63" to-port="0"/>
		<edge from-layer="63" from-port="1" to-layer="64" to-port="0"/>
		<edge from-layer="64" from-port="3" to-layer="65" to-port="0"/>
		<edge from-layer="65" from-port="1" to-layer="66" to-port="0"/>
		<edge from-layer="60" from-port="1" to-layer="67" to-port="0"/>
		<edge from-layer="66" from-port="3" to-layer="68" to-port="0"/>
		<edge from-layer="67" from-port="3" to-layer="68" to-port="1"/>
		<edge from-layer="68" from-port="2" to-layer="69" to-port="0"/>
		<edge from-layer="69" from-port="1" to-layer="70" to-port="0"/>
		<edge from-layer="70" from-port="3" to-layer="71" to-port="0"/>
		<edge from-layer="71" from-port="1" to-layer="72" to-port="0"/>
		<edge from-layer="72" from-port="3" to-layer="73" to-port="0"/>
		<edge from-layer="73" from-port="1" to-layer="74" to-port="0"/>
		<edge from-layer="74" from-port="3" to-layer="75" to-port="0"/>
		<edge from-layer="69" from-port="1" to-layer="75" to-port="1"/>
		<edge from-layer="75" from-port="2" to-layer="76" to-port="0"/>
		<edge from-layer="76" from-port="1" to-layer="77" to-port="0"/>
		<edge from-layer="77" from-port="3" to-layer="78" to-port="0"/>
		<edge from-layer="78" from-port="1" to-layer="79" to-port="0"/>
		<edge from-layer="79" from-port="3" to-layer="80" to-port="0"/>
		<edge from-layer="80" from-port="1" to-layer="81" to-port="0"/>
		<edge from-layer="81" from-port="3" to-layer="82" to-port="0"/>
		<edge from-layer="76" from-port="1" to-layer="82" to-port="1"/>
		<edge from-layer="82" from-port="2" to-layer="83" to-port="0"/>
		<edge from-layer="83" from-port="1" to-layer="84" to-port="0"/>
		<edge from-layer="84" from-port="3" to-layer="85" to-port="0"/>
		<edge from-layer="85" from-port="1" to-layer="86" to-port="0"/>
		<edge from-layer="86" from-port="3" to-layer="87" to-port="0"/>
		<edge from-layer="87" from-port="1" to-layer="88" to-port="0"/>
		<edge from-layer="88" from-port="3" to-layer="89" to-port="0"/>
		<edge from-layer="83" from-port="1" to-layer="89" to-port="1"/>
		<edge from-layer="89" from-port="2" to-layer="90" to-port="0"/>
		<edge from-layer="90" from-port="1" to-layer="91" to-port="0"/>
		<edge from-layer="91" from-port="3" to-layer="92" to-port="0"/>
		<edge from-layer="92" from-port="1" to-layer="93" to-port="0"/>
		<edge from-layer="93" from-port="3" to-layer="94" to-port="0"/>
		<edge from-layer="94" from-port="1" to-layer="95" to-port="0"/>
		<edge from-layer="95" from-port="3" to-layer="96" to-port="0"/>
		<edge from-layer="90" from-port="1" to-layer="96" to-port="1"/>
		<edge from-layer="96" from-port="2" to-layer="97" to-port="0"/>
		<edge from-layer="97" from-port="1" to-layer="98" to-port="0"/>
		<edge from-layer="98" from-port="3" to-layer="99" to-port="0"/>
		<edge from-layer="99" from-port="1" to-layer="100" to-port="0"/>
		<edge from-layer="100" from-port="3" to-layer="101" to-port="0"/>
		<edge from-layer="101" from-port="1" to-layer="102" to-port="0"/>
		<edge from-layer="102" from-port="3" to-layer="103" to-port="0"/>
		<edge from-layer="97" from-port="1" to-layer="103" to-port="1"/>
		<edge from-layer="103" from-port="2" to-layer="104" to-port="0"/>
		<edge from-layer="104" from-port="1" to-layer="105" to-port="0"/>
		<edge from-layer="105" from-port="3" to-layer="106" to-port="0"/>
		<edge from-layer="106" from-port="1" to-layer="107" to-port="0"/>
		<edge from-layer="107" from-port="3" to-layer="108" to-port="0"/>
		<edge from-layer="108" from-port="1" to-layer="109" to-port="0"/>
		<edge from-layer="109" from-port="3" to-layer="110" to-port="0"/>
		<edge from-layer="104" from-port="1" to-layer="110" to-port="1"/>
		<edge from-layer="110" from-port="2" to-layer="111" to-port="0"/>
		<edge from-layer="111" from-port="1" to-layer="112" to-port="0"/>
		<edge from-layer="112" from-port="3" to-layer="113" to-port="0"/>
		<edge from-layer="113" from-port="1" to-layer="114" to-port="0"/>
		<edge from-layer="114" from-port="3" to-layer="115" to-port="0"/>
		<edge from-layer="115" from-port="1" to-layer="116" to-port="0"/>
		<edge from-layer="116" from-port="3" to-layer="117" to-port="0"/>
		<edge from-layer="111" from-port="1" to-layer="117" to-port="1"/>
		<edge from-layer="117" from-port="2" to-layer="118" to-port="0"/>
		<edge from-layer="118" from-port="1" to-layer="119" to-port="0"/>
		<edge from-layer="119" from-port="3" to-layer="120" to-port="0"/>
		<edge from-layer="120" from-port="1" to-layer="121" to-port="0"/>
		<edge from-layer="121" from-port="3" to-layer="122" to-port="0"/>
		<edge from-layer="122" from-port="1" to-layer="123" to-port="0"/>
		<edge from-layer="123" from-port="3" to-layer="124" to-port="0"/>
		<edge from-layer="118" from-port="1" to-layer="124" to-port="1"/>
		<edge from-layer="124" from-port="2" to-layer="125" to-port="0"/>
		<edge from-layer="125" from-port="1" to-layer="126" to-port="0"/>
		<edge from-layer="126" from-port="3" to-layer="127" to-port="0"/>
		<edge from-layer="127" from-port="1" to-layer="128" to-port="0"/>
		<edge from-layer="128" from-port="3" to-layer="129" to-port="0"/>
		<edge from-layer="129" from-port="1" to-layer="130" to-port="0"/>
		<edge from-layer="130" from-port="3" to-layer="131" to-port="0"/>
		<edge from-layer="125" from-port="1" to-layer="131" to-port="1"/>
		<edge from-layer="131" from-port="2" to-layer="132" to-port="0"/>
		<edge from-layer="132" from-port="1" to-layer="133" to-port="0"/>
		<edge from-layer="133" from-port="3" to-layer="134" to-port="0"/>
		<edge from-layer="134" from-port="1" to-layer="135" to-port="0"/>
		<edge from-layer="135" from-port="3" to-layer="136" to-port="0"/>
		<edge from-layer="136" from-port="1" to-layer="137" to-port="0"/>
		<edge from-layer="137" from-port="3" to-layer="138" to-port="0"/>
		<edge from-layer="132" from-port="1" to-layer="138" to-port="1"/>
		<edge from-layer="138" from-port="2" to-layer="139" to-port="0"/>
		<edge from-layer="139" from-port="1" to-layer="140" to-port="0"/>
		<edge from-layer="140" from-port="3" to-layer="141" to-port="0"/>
		<edge from-layer="141" from-port="1" to-layer="142" to-port="0"/>
		<edge from-layer="142" from-port="3" to-layer="143" to-port="0"/>
		<edge from-layer="143" from-port="1" to-layer="144" to-port="0"/>
		<edge from-layer="144" from-port="3" to-layer="145" to-port="0"/>
		<edge from-layer="139" from-port="1" to-layer="145" to-port="1"/>
		<edge from-layer="145" from-port="2" to-layer="146" to-port="0"/>
		<edge from-layer="146" from-port="1" to-layer="147" to-port="0"/>
		<edge from-layer="147" from-port="3" to-layer="148" to-port="0"/>
		<edge from-layer="148" from-port="1" to-layer="149" to-port="0"/>
		<edge from-layer="149" from-port="3" to-layer="150" to-port="0"/>
		<edge from-layer="150" from-port="1" to-layer="151" to-port="0"/>
		<edge from-layer="151" from-port="3" to-layer="152" to-port="0"/>
		<edge from-layer="146" from-port="1" to-layer="152" to-port="1"/>
		<edge from-layer="152" from-port="2" to-layer="153" to-port="0"/>
		<edge from-layer="153" from-port="1" to-layer="154" to-port="0"/>
		<edge from-layer="154" from-port="3" to-layer="155" to-port="0"/>
		<edge from-layer="155" from-port="1" to-layer="156" to-port="0"/>
		<edge from-layer="156" from-port="3" to-layer="157" to-port="0"/>
		<edge from-layer="157" from-port="1" to-layer="158" to-port="0"/>
		<edge from-layer="158" from-port="3" to-layer="159" to-port="0"/>
		<edge from-layer="153" from-port="1" to-layer="159" to-port="1"/>
		<edge from-layer="159" from-port="2" to-layer="160" to-port="0"/>
		<edge from-layer="160" from-port="1" to-layer="161" to-port="0"/>
		<edge from-layer="161" from-port="3" to-layer="162" to-port="0"/>
		<edge from-layer="162" from-port="1" to-layer="163" to-port="0"/>
		<edge from-layer="163" from-port="3" to-layer="164" to-port="0"/>
		<edge from-layer="164" from-port="1" to-layer="165" to-port="0"/>
		<edge from-layer="165" from-port="3" to-layer="166" to-port="0"/>
		<edge from-layer="160" from-port="1" to-layer="166" to-port="1"/>
		<edge from-layer="166" from-port="2" to-layer="167" to-port="0"/>
		<edge from-layer="167" from-port="1" to-layer="168" to-port="0"/>
		<edge from-layer="168" from-port="3" to-layer="169" to-port="0"/>
		<edge from-layer="169" from-port="1" to-layer="170" to-port="0"/>
		<edge from-layer="170" from-port="3" to-layer="171" to-port="0"/>
		<edge from-layer="171" from-port="1" to-layer="172" to-port="0"/>
		<edge from-layer="172" from-port="3" to-layer="173" to-port="0"/>
		<edge from-layer="167" from-port="1" to-layer="173" to-port="1"/>
		<edge from-layer="173" from-port="2" to-layer="174" to-port="0"/>
		<edge from-layer="174" from-port="1" to-layer="175" to-port="0"/>
		<edge from-layer="175" from-port="3" to-layer="176" to-port="0"/>
		<edge from-layer="176" from-port="1" to-layer="177" to-port="0"/>
		<edge from-layer="177" from-port="3" to-layer="178" to-port="0"/>
		<edge from-layer="178" from-port="1" to-layer="179" to-port="0"/>
		<edge from-layer="179" from-port="3" to-layer="180" to-port="0"/>
		<edge from-layer="174" from-port="1" to-layer="180" to-port="1"/>
		<edge from-layer="180" from-port="2" to-layer="181" to-port="0"/>
		<edge from-layer="181" from-port="1" to-layer="182" to-port="0"/>
		<edge from-layer="182" from-port="3" to-layer="183" to-port="0"/>
		<edge from-layer="183" from-port="1" to-layer="184" to-port="0"/>
		<edge from-layer="184" from-port="3" to-layer="185" to-port="0"/>
		<edge from-layer="185" from-port="1" to-layer="186" to-port="0"/>
		<edge from-layer="186" from-port="3" to-layer="187" to-port="0"/>
		<edge from-layer="181" from-port="1" to-layer="187" to-port="1"/>
		<edge from-layer="187" from-port="2" to-layer="188" to-port="0"/>
		<edge from-layer="188" from-port="1" to-layer="189" to-port="0"/>
		<edge from-layer="189" from-port="3" to-layer="190" to-port="0"/>
		<edge from-layer="190" from-port="1" to-layer="191" to-port="0"/>
		<edge from-layer="191" from-port="3" to-layer="192" to-port="0"/>
		<edge from-layer="192" from-port="1" to-layer="193" to-port="0"/>
		<edge from-layer="193" from-port="3" to-layer="194" to-port="0"/>
		<edge from-layer="188" from-port="1" to-layer="194" to-port="1"/>
		<edge from-layer="194" from-port="2" to-layer="195" to-port="0"/>
		<edge from-layer="195" from-port="1" to-layer="196" to-port="0"/>
		<edge from-layer="196" from-port="3" to-layer="197" to-port="0"/>
		<edge from-layer="197" from-port="1" to-layer="198" to-port="0"/>
		<edge from-layer="198" from-port="3" to-layer="199" to-port="0"/>
		<edge from-layer="199" from-port="1" to-layer="200" to-port="0"/>
		<edge from-layer="200" from-port="3" to-layer="201" to-port="0"/>
		<edge from-layer="195" from-port="1" to-layer="201" to-port="1"/>
		<edge from-layer="201" from-port="2" to-layer="202" to-port="0"/>
		<edge from-layer="202" from-port="1" to-layer="203" to-port="0"/>
		<edge from-layer="203" from-port="3" to-layer="204" to-port="0"/>
		<edge from-layer="204" from-port="1" to-layer="205" to-port="0"/>
		<edge from-layer="205" from-port="3" to-layer="206" to-port="0"/>
		<edge from-layer="206" from-port="1" to-layer="207" to-port="0"/>
		<edge from-layer="207" from-port="3" to-layer="208" to-port="0"/>
		<edge from-layer="202" from-port="1" to-layer="208" to-port="1"/>
		<edge from-layer="208" from-port="2" to-layer="209" to-port="0"/>
		<edge from-layer="209" from-port="1" to-layer="210" to-port="0"/>
		<edge from-layer="210" from-port="3" to-layer="211" to-port="0"/>
		<edge from-layer="211" from-port="1" to-layer="212" to-port="0"/>
		<edge from-layer="212" from-port="3" to-layer="213" to-port="0"/>
		<edge from-layer="213" from-port="1" to-layer="214" to-port="0"/>
		<edge from-layer="214" from-port="3" to-layer="215" to-port="0"/>
		<edge from-layer="209" from-port="1" to-layer="215" to-port="1"/>
		<edge from-layer="215" from-port="2" to-layer="216" to-port="0"/>
		<edge from-layer="216" from-port="1" to-layer="217" to-port="0"/>
		<edge from-layer="217" from-port="3" to-layer="218" to-port="0"/>
		<edge from-layer="218" from-port="1" to-layer="219" to-port="0"/>
		<edge from-layer="219" from-port="3" to-layer="220" to-port="0"/>
		<edge from-layer="220" from-port="1" to-layer="221" to-port="0"/>
		<edge from-layer="221" from-port="3" to-layer="222" to-port="0"/>
		<edge from-layer="216" from-port="1" to-layer="222" to-port="1"/>
		<edge from-layer="222" from-port="2" to-layer="223" to-port="0"/>
		<edge from-layer="223" from-port="1" to-layer="224" to-port="0"/>
		<edge from-layer="223" from-port="1" to-layer="225" to-port="0"/>
		<edge from-layer="225" from-port="3" to-layer="226" to-port="0"/>
		<edge from-layer="226" from-port="1" to-layer="227" to-port="0"/>
		<edge from-layer="227" from-port="3" to-layer="228" to-port="0"/>
		<edge from-layer="228" from-port="1" to-layer="229" to-port="0"/>
		<edge from-layer="223" from-port="1" to-layer="230" to-port="0"/>
		<edge from-layer="229" from-port="3" to-layer="231" to-port="0"/>
		<edge from-layer="230" from-port="3" to-layer="231" to-port="1"/>
		<edge from-layer="231" from-port="2" to-layer="232" to-port="0"/>
		<edge from-layer="232" from-port="1" to-layer="233" to-port="0"/>
		<edge from-layer="233" from-port="3" to-layer="234" to-port="0"/>
		<edge from-layer="234" from-port="1" to-layer="235" to-port="0"/>
		<edge from-layer="235" from-port="3" to-layer="236" to-port="0"/>
		<edge from-layer="236" from-port="1" to-layer="237" to-port="0"/>
		<edge from-layer="237" from-port="3" to-layer="238" to-port="0"/>
		<edge from-layer="232" from-port="1" to-layer="238" to-port="1"/>
		<edge from-layer="238" from-port="2" to-layer="239" to-port="0"/>
		<edge from-layer="239" from-port="1" to-layer="240" to-port="0"/>
		<edge from-layer="240" from-port="3" to-layer="241" to-port="0"/>
		<edge from-layer="241" from-port="1" to-layer="242" to-port="0"/>
		<edge from-layer="242" from-port="3" to-layer="243" to-port="0"/>
		<edge from-layer="243" from-port="1" to-layer="244" to-port="0"/>
		<edge from-layer="244" from-port="3" to-layer="245" to-port="0"/>
		<edge from-layer="239" from-port="1" to-layer="245" to-port="1"/>
		<edge from-layer="245" from-port="2" to-layer="246" to-port="0"/>
		<edge from-layer="246" from-port="1" to-layer="247" to-port="0"/>
		<edge from-layer="247" from-port="3" to-layer="248" to-port="0"/>
		<edge from-layer="224" from-port="3" to-layer="249" to-port="0"/>
		<edge from-layer="248" from-port="1" to-layer="249" to-port="1"/>
		<edge from-layer="249" from-port="2" to-layer="250" to-port="0"/>
		<edge from-layer="61" from-port="3" to-layer="251" to-port="0"/>
		<edge from-layer="250" from-port="1" to-layer="251" to-port="1"/>
		<edge from-layer="251" from-port="2" to-layer="252" to-port="0"/>
		<edge from-layer="31" from-port="3" to-layer="253" to-port="0"/>
		<edge from-layer="252" from-port="1" to-layer="253" to-port="1"/>
		<edge from-layer="253" from-port="2" to-layer="254" to-port="0"/>
		<edge from-layer="3" from-port="1" to-layer="255" to-port="0"/>
		<edge from-layer="254" from-port="3" to-layer="255" to-port="1"/>
		<edge from-layer="5" from-port="3" to-layer="255" to-port="2"/>
		<edge from-layer="254" from-port="3" to-layer="256" to-port="0"/>
		<edge from-layer="256" from-port="3" to-layer="257" to-port="0"/>
		<edge from-layer="257" from-port="1" to-layer="258" to-port="0"/>
		<edge from-layer="258" from-port="3" to-layer="260" to-port="0"/>
		<edge from-layer="259" from-port="1" to-layer="260" to-port="1"/>
		<edge from-layer="257" from-port="1" to-layer="261" to-port="0"/>
		<edge from-layer="261" from-port="3" to-layer="262" to-port="0"/>
		<edge from-layer="262" from-port="1" to-layer="264" to-port="0"/>
		<edge from-layer="263" from-port="1" to-layer="264" to-port="1"/>
		<edge from-layer="2" from-port="2" to-layer="265" to-port="0"/>
		<edge from-layer="255" from-port="3" to-layer="265" to-port="1"/>
		<edge from-layer="260" from-port="2" to-layer="265" to-port="2"/>
		<edge from-layer="264" from-port="2" to-layer="265" to-port="3"/>
		<edge from-layer="0" from-port="0" to-layer="267" to-port="0"/>
		<edge from-layer="266" from-port="1" to-layer="267" to-port="1"/>
		<edge from-layer="254" from-port="3" to-layer="269" to-port="0"/>
		<edge from-layer="254" from-port="3" to-layer="270" to-port="0"/>
		<edge from-layer="269" from-port="2" to-layer="270" to-port="1"/>
		<edge from-layer="270" from-port="3" to-layer="272" to-port="0"/>
		<edge from-layer="271" from-port="1" to-layer="272" to-port="1"/>
		<edge from-layer="272" from-port="2" to-layer="273" to-port="0"/>
		<edge from-layer="273" from-port="1" to-layer="275" to-port="0"/>
		<edge from-layer="274" from-port="1" to-layer="275" to-port="1"/>
		<edge from-layer="275" from-port="2" to-layer="276" to-port="0"/>
		<edge from-layer="276" from-port="3" to-layer="277" to-port="0"/>
		<edge from-layer="251" from-port="2" to-layer="278" to-port="0"/>
		<edge from-layer="277" from-port="1" to-layer="279" to-port="0"/>
		<edge from-layer="278" from-port="3" to-layer="279" to-port="1"/>
		<edge from-layer="279" from-port="2" to-layer="280" to-port="0"/>
		<edge from-layer="279" from-port="2" to-layer="281" to-port="0"/>
		<edge from-layer="280" from-port="2" to-layer="281" to-port="1"/>
		<edge from-layer="281" from-port="3" to-layer="283" to-port="0"/>
		<edge from-layer="282" from-port="1" to-layer="283" to-port="1"/>
		<edge from-layer="283" from-port="2" to-layer="284" to-port="0"/>
		<edge from-layer="284" from-port="1" to-layer="286" to-port="0"/>
		<edge from-layer="285" from-port="1" to-layer="286" to-port="1"/>
		<edge from-layer="286" from-port="2" to-layer="287" to-port="0"/>
		<edge from-layer="287" from-port="3" to-layer="288" to-port="0"/>
		<edge from-layer="268" from-port="1" to-layer="289" to-port="0"/>
		<edge from-layer="288" from-port="1" to-layer="289" to-port="1"/>
		<edge from-layer="5" from-port="3" to-layer="289" to-port="2"/>
		<edge from-layer="288" from-port="1" to-layer="290" to-port="0"/>
		<edge from-layer="290" from-port="3" to-layer="291" to-port="0"/>
		<edge from-layer="291" from-port="1" to-layer="292" to-port="0"/>
		<edge from-layer="292" from-port="3" to-layer="294" to-port="0"/>
		<edge from-layer="293" from-port="1" to-layer="294" to-port="1"/>
		<edge from-layer="291" from-port="1" to-layer="295" to-port="0"/>
		<edge from-layer="295" from-port="3" to-layer="296" to-port="0"/>
		<edge from-layer="296" from-port="1" to-layer="298" to-port="0"/>
		<edge from-layer="297" from-port="1" to-layer="298" to-port="1"/>
		<edge from-layer="267" from-port="2" to-layer="299" to-port="0"/>
		<edge from-layer="289" from-port="3" to-layer="299" to-port="1"/>
		<edge from-layer="294" from-port="2" to-layer="299" to-port="2"/>
		<edge from-layer="298" from-port="2" to-layer="299" to-port="3"/>
		<edge from-layer="0" from-port="0" to-layer="301" to-port="0"/>
		<edge from-layer="300" from-port="1" to-layer="301" to-port="1"/>
		<edge from-layer="288" from-port="1" to-layer="303" to-port="0"/>
		<edge from-layer="288" from-port="1" to-layer="304" to-port="0"/>
		<edge from-layer="303" from-port="2" to-layer="304" to-port="1"/>
		<edge from-layer="304" from-port="3" to-layer="306" to-port="0"/>
		<edge from-layer="305" from-port="1" to-layer="306" to-port="1"/>
		<edge from-layer="306" from-port="2" to-layer="307" to-port="0"/>
		<edge from-layer="307" from-port="1" to-layer="309" to-port="0"/>
		<edge from-layer="308" from-port="1" to-layer="309" to-port="1"/>
		<edge from-layer="309" from-port="2" to-layer="310" to-port="0"/>
		<edge from-layer="310" from-port="3" to-layer="311" to-port="0"/>
		<edge from-layer="249" from-port="2" to-layer="312" to-port="0"/>
		<edge from-layer="311" from-port="1" to-layer="313" to-port="0"/>
		<edge from-layer="312" from-port="3" to-layer="313" to-port="1"/>
		<edge from-layer="313" from-port="2" to-layer="314" to-port="0"/>
		<edge from-layer="313" from-port="2" to-layer="315" to-port="0"/>
		<edge from-layer="314" from-port="2" to-layer="315" to-port="1"/>
		<edge from-layer="315" from-port="3" to-layer="317" to-port="0"/>
		<edge from-layer="316" from-port="1" to-layer="317" to-port="1"/>
		<edge from-layer="317" from-port="2" to-layer="318" to-port="0"/>
		<edge from-layer="318" from-port="1" to-layer="320" to-port="0"/>
		<edge from-layer="319" from-port="1" to-layer="320" to-port="1"/>
		<edge from-layer="320" from-port="2" to-layer="321" to-port="0"/>
		<edge from-layer="321" from-port="3" to-layer="322" to-port="0"/>
		<edge from-layer="302" from-port="1" to-layer="323" to-port="0"/>
		<edge from-layer="322" from-port="1" to-layer="323" to-port="1"/>
		<edge from-layer="5" from-port="3" to-layer="323" to-port="2"/>
		<edge from-layer="322" from-port="1" to-layer="324" to-port="0"/>
		<edge from-layer="324" from-port="3" to-layer="325" to-port="0"/>
		<edge from-layer="325" from-port="1" to-layer="326" to-port="0"/>
		<edge from-layer="326" from-port="3" to-layer="328" to-port="0"/>
		<edge from-layer="327" from-port="1" to-layer="328" to-port="1"/>
		<edge from-layer="325" from-port="1" to-layer="329" to-port="0"/>
		<edge from-layer="329" from-port="3" to-layer="330" to-port="0"/>
		<edge from-layer="330" from-port="1" to-layer="332" to-port="0"/>
		<edge from-layer="331" from-port="1" to-layer="332" to-port="1"/>
		<edge from-layer="301" from-port="2" to-layer="333" to-port="0"/>
		<edge from-layer="323" from-port="3" to-layer="333" to-port="1"/>
		<edge from-layer="328" from-port="2" to-layer="333" to-port="2"/>
		<edge from-layer="332" from-port="2" to-layer="333" to-port="3"/>
		<edge from-layer="0" from-port="0" to-layer="335" to-port="0"/>
		<edge from-layer="334" from-port="1" to-layer="335" to-port="1"/>
		<edge from-layer="322" from-port="1" to-layer="337" to-port="0"/>
		<edge from-layer="322" from-port="1" to-layer="338" to-port="0"/>
		<edge from-layer="337" from-port="2" to-layer="338" to-port="1"/>
		<edge from-layer="338" from-port="3" to-layer="340" to-port="0"/>
		<edge from-layer="339" from-port="1" to-layer="340" to-port="1"/>
		<edge from-layer="340" from-port="2" to-layer="341" to-port="0"/>
		<edge from-layer="341" from-port="1" to-layer="343" to-port="0"/>
		<edge from-layer="342" from-port="1" to-layer="343" to-port="1"/>
		<edge from-layer="343" from-port="2" to-layer="344" to-port="0"/>
		<edge from-layer="344" from-port="3" to-layer="345" to-port="0"/>
		<edge from-layer="247" from-port="3" to-layer="346" to-port="0"/>
		<edge from-layer="345" from-port="1" to-layer="347" to-port="0"/>
		<edge from-layer="346" from-port="3" to-layer="347" to-port="1"/>
		<edge from-layer="347" from-port="2" to-layer="348" to-port="0"/>
		<edge from-layer="347" from-port="2" to-layer="349" to-port="0"/>
		<edge from-layer="348" from-port="2" to-layer="349" to-port="1"/>
		<edge from-layer="349" from-port="3" to-layer="351" to-port="0"/>
		<edge from-layer="350" from-port="1" to-layer="351" to-port="1"/>
		<edge from-layer="351" from-port="2" to-layer="352" to-port="0"/>
		<edge from-layer="352" from-port="1" to-layer="354" to-port="0"/>
		<edge from-layer="353" from-port="1" to-layer="354" to-port="1"/>
		<edge from-layer="354" from-port="2" to-layer="355" to-port="0"/>
		<edge from-layer="355" from-port="3" to-layer="356" to-port="0"/>
		<edge from-layer="336" from-port="1" to-layer="357" to-port="0"/>
		<edge from-layer="356" from-port="1" to-layer="357" to-port="1"/>
		<edge from-layer="5" from-port="3" to-layer="357" to-port="2"/>
		<edge from-layer="356" from-port="1" to-layer="358" to-port="0"/>
		<edge from-layer="358" from-port="3" to-layer="359" to-port="0"/>
		<edge from-layer="359" from-port="1" to-layer="360" to-port="0"/>
		<edge from-layer="360" from-port="3" to-layer="362" to-port="0"/>
		<edge from-layer="361" from-port="1" to-layer="362" to-port="1"/>
		<edge from-layer="359" from-port="1" to-layer="363" to-port="0"/>
		<edge from-layer="363" from-port="3" to-layer="364" to-port="0"/>
		<edge from-layer="364" from-port="1" to-layer="366" to-port="0"/>
		<edge from-layer="365" from-port="1" to-layer="366" to-port="1"/>
		<edge from-layer="335" from-port="2" to-layer="367" to-port="0"/>
		<edge from-layer="357" from-port="3" to-layer="367" to-port="1"/>
		<edge from-layer="362" from-port="2" to-layer="367" to-port="2"/>
		<edge from-layer="366" from-port="2" to-layer="367" to-port="3"/>
		<edge from-layer="0" from-port="0" to-layer="369" to-port="0"/>
		<edge from-layer="368" from-port="1" to-layer="369" to-port="1"/>
		<edge from-layer="356" from-port="1" to-layer="371" to-port="0"/>
		<edge from-layer="370" from-port="1" to-layer="372" to-port="0"/>
		<edge from-layer="371" from-port="1" to-layer="372" to-port="1"/>
		<edge from-layer="5" from-port="3" to-layer="372" to-port="2"/>
		<edge from-layer="371" from-port="1" to-layer="373" to-port="0"/>
		<edge from-layer="373" from-port="3" to-layer="374" to-port="0"/>
		<edge from-layer="374" from-port="1" to-layer="375" to-port="0"/>
		<edge from-layer="375" from-port="3" to-layer="377" to-port="0"/>
		<edge from-layer="376" from-port="1" to-layer="377" to-port="1"/>
		<edge from-layer="374" from-port="1" to-layer="378" to-port="0"/>
		<edge from-layer="378" from-port="3" to-layer="379" to-port="0"/>
		<edge from-layer="379" from-port="1" to-layer="381" to-port="0"/>
		<edge from-layer="380" from-port="1" to-layer="381" to-port="1"/>
		<edge from-layer="369" from-port="2" to-layer="382" to-port="0"/>
		<edge from-layer="372" from-port="3" to-layer="382" to-port="1"/>
		<edge from-layer="377" from-port="2" to-layer="382" to-port="2"/>
		<edge from-layer="381" from-port="2" to-layer="382" to-port="3"/>
		<edge from-layer="265" from-port="4" to-layer="383" to-port="0"/>
		<edge from-layer="299" from-port="4" to-layer="383" to-port="1"/>
		<edge from-layer="333" from-port="4" to-layer="383" to-port="2"/>
		<edge from-layer="367" from-port="4" to-layer="383" to-port="3"/>
		<edge from-layer="382" from-port="4" to-layer="383" to-port="4"/>
		<edge from-layer="265" from-port="5" to-layer="384" to-port="0"/>
		<edge from-layer="299" from-port="5" to-layer="384" to-port="1"/>
		<edge from-layer="333" from-port="5" to-layer="384" to-port="2"/>
		<edge from-layer="367" from-port="5" to-layer="384" to-port="3"/>
		<edge from-layer="382" from-port="5" to-layer="384" to-port="4"/>
		<edge from-layer="383" from-port="5" to-layer="385" to-port="0"/>
		<edge from-layer="384" from-port="5" to-layer="385" to-port="1"/>
		<edge from-layer="385" from-port="2" to-layer="386" to-port="0"/>
		<edge from-layer="254" from-port="3" to-layer="386" to-port="1"/>
		<edge from-layer="386" from-port="2" to-layer="387" to-port="0"/>
		<edge from-layer="387" from-port="1" to-layer="389" to-port="0"/>
		<edge from-layer="388" from-port="1" to-layer="389" to-port="1"/>
		<edge from-layer="389" from-port="2" to-layer="390" to-port="0"/>
		<edge from-layer="385" from-port="2" to-layer="391" to-port="0"/>
		<edge from-layer="288" from-port="1" to-layer="391" to-port="1"/>
		<edge from-layer="391" from-port="2" to-layer="392" to-port="0"/>
		<edge from-layer="392" from-port="1" to-layer="394" to-port="0"/>
		<edge from-layer="393" from-port="1" to-layer="394" to-port="1"/>
		<edge from-layer="394" from-port="2" to-layer="395" to-port="0"/>
		<edge from-layer="390" from-port="3" to-layer="396" to-port="0"/>
		<edge from-layer="395" from-port="3" to-layer="396" to-port="1"/>
		<edge from-layer="385" from-port="2" to-layer="397" to-port="0"/>
		<edge from-layer="322" from-port="1" to-layer="397" to-port="1"/>
		<edge from-layer="397" from-port="2" to-layer="398" to-port="0"/>
		<edge from-layer="398" from-port="1" to-layer="400" to-port="0"/>
		<edge from-layer="399" from-port="1" to-layer="400" to-port="1"/>
		<edge from-layer="400" from-port="2" to-layer="401" to-port="0"/>
		<edge from-layer="396" from-port="2" to-layer="402" to-port="0"/>
		<edge from-layer="401" from-port="3" to-layer="402" to-port="1"/>
		<edge from-layer="385" from-port="2" to-layer="403" to-port="0"/>
		<edge from-layer="356" from-port="1" to-layer="403" to-port="1"/>
		<edge from-layer="403" from-port="2" to-layer="404" to-port="0"/>
		<edge from-layer="404" from-port="1" to-layer="406" to-port="0"/>
		<edge from-layer="405" from-port="1" to-layer="406" to-port="1"/>
		<edge from-layer="406" from-port="2" to-layer="407" to-port="0"/>
		<edge from-layer="402" from-port="2" to-layer="408" to-port="0"/>
		<edge from-layer="407" from-port="3" to-layer="408" to-port="1"/>
		<edge from-layer="408" from-port="2" to-layer="409" to-port="0"/>
		<edge from-layer="409" from-port="3" to-layer="410" to-port="0"/>
		<edge from-layer="410" from-port="1" to-layer="411" to-port="0"/>
		<edge from-layer="410" from-port="1" to-layer="412" to-port="0"/>
		<edge from-layer="412" from-port="3" to-layer="413" to-port="0"/>
		<edge from-layer="385" from-port="2" to-layer="414" to-port="0"/>
		<edge from-layer="411" from-port="3" to-layer="414" to-port="1"/>
		<edge from-layer="413" from-port="1" to-layer="414" to-port="2"/>
		<edge from-layer="0" from-port="0" to-layer="414" to-port="3"/>
		<edge from-layer="414" from-port="4" to-layer="415" to-port="0"/>
		<edge from-layer="414" from-port="5" to-layer="416" to-port="0"/>
		<edge from-layer="414" from-port="4" to-layer="417" to-port="0"/>
		<edge from-layer="254" from-port="3" to-layer="417" to-port="1"/>
		<edge from-layer="417" from-port="2" to-layer="418" to-port="0"/>
		<edge from-layer="418" from-port="1" to-layer="419" to-port="0"/>
		<edge from-layer="419" from-port="3" to-layer="421" to-port="0"/>
		<edge from-layer="420" from-port="1" to-layer="421" to-port="1"/>
		<edge from-layer="421" from-port="2" to-layer="422" to-port="0"/>
		<edge from-layer="422" from-port="1" to-layer="424" to-port="0"/>
		<edge from-layer="423" from-port="1" to-layer="424" to-port="1"/>
		<edge from-layer="424" from-port="2" to-layer="425" to-port="0"/>
		<edge from-layer="425" from-port="3" to-layer="426" to-port="0"/>
		<edge from-layer="414" from-port="4" to-layer="427" to-port="0"/>
		<edge from-layer="288" from-port="1" to-layer="427" to-port="1"/>
		<edge from-layer="427" from-port="2" to-layer="428" to-port="0"/>
		<edge from-layer="428" from-port="1" to-layer="429" to-port="0"/>
		<edge from-layer="429" from-port="3" to-layer="431" to-port="0"/>
		<edge from-layer="430" from-port="1" to-layer="431" to-port="1"/>
		<edge from-layer="431" from-port="2" to-layer="432" to-port="0"/>
		<edge from-layer="432" from-port="1" to-layer="434" to-port="0"/>
		<edge from-layer="433" from-port="1" to-layer="434" to-port="1"/>
		<edge from-layer="434" from-port="2" to-layer="435" to-port="0"/>
		<edge from-layer="435" from-port="3" to-layer="436" to-port="0"/>
		<edge from-layer="426" from-port="1" to-layer="437" to-port="0"/>
		<edge from-layer="436" from-port="1" to-layer="437" to-port="1"/>
		<edge from-layer="414" from-port="4" to-layer="438" to-port="0"/>
		<edge from-layer="322" from-port="1" to-layer="438" to-port="1"/>
		<edge from-layer="438" from-port="2" to-layer="439" to-port="0"/>
		<edge from-layer="439" from-port="1" to-layer="440" to-port="0"/>
		<edge from-layer="440" from-port="3" to-layer="442" to-port="0"/>
		<edge from-layer="441" from-port="1" to-layer="442" to-port="1"/>
		<edge from-layer="442" from-port="2" to-layer="443" to-port="0"/>
		<edge from-layer="443" from-port="1" to-layer="445" to-port="0"/>
		<edge from-layer="444" from-port="1" to-layer="445" to-port="1"/>
		<edge from-layer="445" from-port="2" to-layer="446" to-port="0"/>
		<edge from-layer="446" from-port="3" to-layer="447" to-port="0"/>
		<edge from-layer="437" from-port="2" to-layer="448" to-port="0"/>
		<edge from-layer="447" from-port="1" to-layer="448" to-port="1"/>
		<edge from-layer="414" from-port="4" to-layer="449" to-port="0"/>
		<edge from-layer="356" from-port="1" to-layer="449" to-port="1"/>
		<edge from-layer="449" from-port="2" to-layer="450" to-port="0"/>
		<edge from-layer="450" from-port="1" to-layer="451" to-port="0"/>
		<edge from-layer="451" from-port="3" to-layer="453" to-port="0"/>
		<edge from-layer="452" from-port="1" to-layer="453" to-port="1"/>
		<edge from-layer="453" from-port="2" to-layer="454" to-port="0"/>
		<edge from-layer="454" from-port="1" to-layer="456" to-port="0"/>
		<edge from-layer="455" from-port="1" to-layer="456" to-port="1"/>
		<edge from-layer="456" from-port="2" to-layer="457" to-port="0"/>
		<edge from-layer="457" from-port="3" to-layer="458" to-port="0"/>
		<edge from-layer="448" from-port="2" to-layer="459" to-port="0"/>
		<edge from-layer="458" from-port="1" to-layer="459" to-port="1"/>
		<edge from-layer="459" from-port="2" to-layer="460" to-port="0"/>
		<edge from-layer="460" from-port="3" to-layer="462" to-port="0"/>
		<edge from-layer="461" from-port="1" to-layer="462" to-port="1"/>
		<edge from-layer="462" from-port="2" to-layer="463" to-port="0"/>
		<edge from-layer="463" from-port="1" to-layer="465" to-port="0"/>
		<edge from-layer="464" from-port="1" to-layer="465" to-port="1"/>
		<edge from-layer="465" from-port="2" to-layer="466" to-port="0"/>
		<edge from-layer="466" from-port="3" to-layer="467" to-port="0"/>
		<edge from-layer="467" from-port="1" to-layer="468" to-port="0"/>
		<edge from-layer="468" from-port="3" to-layer="470" to-port="0"/>
		<edge from-layer="469" from-port="1" to-layer="470" to-port="1"/>
		<edge from-layer="470" from-port="2" to-layer="471" to-port="0"/>
		<edge from-layer="471" from-port="1" to-layer="473" to-port="0"/>
		<edge from-layer="472" from-port="1" to-layer="473" to-port="1"/>
		<edge from-layer="473" from-port="2" to-layer="474" to-port="0"/>
		<edge from-layer="474" from-port="3" to-layer="475" to-port="0"/>
		<edge from-layer="475" from-port="1" to-layer="476" to-port="0"/>
		<edge from-layer="476" from-port="3" to-layer="478" to-port="0"/>
		<edge from-layer="477" from-port="1" to-layer="478" to-port="1"/>
		<edge from-layer="478" from-port="2" to-layer="479" to-port="0"/>
		<edge from-layer="479" from-port="1" to-layer="481" to-port="0"/>
		<edge from-layer="480" from-port="1" to-layer="481" to-port="1"/>
		<edge from-layer="481" from-port="2" to-layer="482" to-port="0"/>
		<edge from-layer="482" from-port="3" to-layer="483" to-port="0"/>
		<edge from-layer="483" from-port="1" to-layer="484" to-port="0"/>
		<edge from-layer="484" from-port="3" to-layer="485" to-port="0"/>
		<edge from-layer="485" from-port="1" to-layer="486" to-port="0"/>
		<edge from-layer="475" from-port="1" to-layer="487" to-port="0"/>
		<edge from-layer="487" from-port="3" to-layer="489" to-port="0"/>
		<edge from-layer="488" from-port="1" to-layer="489" to-port="1"/>
		<edge from-layer="489" from-port="2" to-layer="490" to-port="0"/>
		<edge from-layer="490" from-port="1" to-layer="492" to-port="0"/>
		<edge from-layer="491" from-port="1" to-layer="492" to-port="1"/>
		<edge from-layer="492" from-port="2" to-layer="493" to-port="0"/>
		<edge from-layer="493" from-port="3" to-layer="494" to-port="0"/>
		<edge from-layer="494" from-port="1" to-layer="495" to-port="0"/>
		<edge from-layer="495" from-port="3" to-layer="497" to-port="0"/>
		<edge from-layer="496" from-port="1" to-layer="497" to-port="1"/>
		<edge from-layer="497" from-port="2" to-layer="498" to-port="0"/>
		<edge from-layer="498" from-port="1" to-layer="500" to-port="0"/>
		<edge from-layer="499" from-port="1" to-layer="500" to-port="1"/>
		<edge from-layer="500" from-port="2" to-layer="501" to-port="0"/>
		<edge from-layer="501" from-port="3" to-layer="502" to-port="0"/>
		<edge from-layer="502" from-port="1" to-layer="504" to-port="0"/>
		<edge from-layer="503" from-port="1" to-layer="504" to-port="1"/>
		<edge from-layer="504" from-port="2" to-layer="505" to-port="0"/>
		<edge from-layer="505" from-port="3" to-layer="506" to-port="0"/>
		<edge from-layer="506" from-port="1" to-layer="508" to-port="0"/>
		<edge from-layer="507" from-port="1" to-layer="508" to-port="1"/>
		<edge from-layer="486" from-port="3" to-layer="509" to-port="0"/>
		<edge from-layer="508" from-port="2" to-layer="509" to-port="1"/>
		<edge from-layer="509" from-port="2" to-layer="510" to-port="0"/>
		<edge from-layer="510" from-port="1" to-layer="511" to-port="0"/>
		<edge from-layer="414" from-port="6" to-layer="512" to-port="0"/>
	</edges>
	<meta_data>
		<MO_version value="2019.3.0-227-g3a4f9de20"/>
		<cli_parameters>
			<blobs_as_inputs value="False"/>
			<caffe_parser_path value="DIR"/>
			<data_type value="FP32"/>
			<disable_nhwc_to_nchw value="False"/>
			<disable_omitting_optional value="False"/>
			<disable_resnet_optimization value="False"/>
			<enable_concat_optimization value="False"/>
			<enable_flattening_nested_params value="False"/>
			<enable_ssd_gluoncv value="False"/>
			<extensions value="DIR"/>
			<framework value="onnx"/>
			<freeze_placeholder_with_value value="{}"/>
			<generate_experimental_IR_V10 value="False"/>
			<input value="im_data,im_info"/>
			<input_model value="DIR/model.onnx"/>
			<input_model_is_text value="False"/>
			<input_shape value="[1,3,800,1344],[1,3]"/>
			<k value="DIR/CustomLayersMapping.xml"/>
			<keep_quantize_ops_in_IR value="False"/>
			<keep_shape_ops value="False"/>
			<legacy_mxnet_model value="False"/>
			<log_level value="ERROR"/>
			<mean_scale_values value="{'im_data': {'mean': array([102.9801, 115.9465, 122.7717]), 'scale': None}}"/>
			<mean_values value="im_data[102.9801,115.9465,122.7717]"/>
			<model_name value="instance-segmentation-security-0010"/>
			<move_to_preprocess value="False"/>
			<output value="['boxes', 'scores', 'classes', 'raw_masks']"/>
			<output_dir value="DIR"/>
			<placeholder_shapes value="{'im_data': array([   1,    3,  800, 1344]), 'im_info': array([1, 3])}"/>
			<remove_memory value="False"/>
			<remove_output_softmax value="False"/>
			<reverse_input_channels value="False"/>
			<save_params_from_nd value="False"/>
			<scale_values value="()"/>
			<silent value="False"/>
			<steps value="False"/>
			<version value="False"/>
			<unset unset_cli_parameters="batch, counts, disable_fusing, disable_gfusing, finegrain_fusing, generate_deprecated_IR_V2, input_checkpoint, input_meta_graph, input_proto, input_symbol, mean_file, mean_file_offsets, nd_prefix_name, pretrained_model_name, saved_model_dir, saved_model_tags, scale, tensorboard_logdir, tensorflow_custom_layer_libraries, tensorflow_custom_operations_config_update, tensorflow_object_detection_api_pipeline_config, tensorflow_operation_patterns, tensorflow_subgraph_patterns, tensorflow_use_custom_operations_config"/>
		</cli_parameters>
	</meta_data>
</net>